examples/tfe_benchmarks/models/tfe_network_a.pth.tar (torch_old, 956294 bytes, 24 tensors)

fc1.weight f4 [128, 784]
0	0x3cb9c1bc	0.022675388
1	0x3c9dfeeb	0.019286593
2	0xbd1183ce	-0.03552609
3	0xb8869dab	-6.418986e-05
4	0xbcfa3a6d	-0.030545438
5	0xbc4187bb	-0.011812146
6	0x3c9545fd	0.01822185
7	0xbc52c105	-0.012863402
8	0xbc015c75	-0.007895579
9	0xbc7f8214	-0.015594978
10	0x3cf4d954	0.029888786
11	0xbc0c337e	-0.008557199
12	0x3c938f2f	0.018012611
13	0x3cd76bb1	0.026296468
14	0x3ca6d6ac	0.020366035
15	0x3c6f9d36	0.014624884
16	0x3b7202d0	0.0036927946
17	0xbc00ccad	-0.0078612985
18	0xba49e36d	-0.00077014306
19	0x3c8de444	0.01732076
20	0x3bc1f65d	0.0059192614
21	0xbcb531f6	-0.02211855
22	0xbcae6fa1	-0.021293463
23	0xbca4ecbe	-0.020132419
24	0x3d03aa9a	0.03214512
25	0x3cf71203	0.030159956
26	0xbcba2d70	-0.022726744
27	0x3ceb732d	0.028741444
28	0xbc869eae	-0.016433086
29	0x3bad68ae	0.00529202
30	0xb9cc9751	-0.00039022652
31	0xbc4b163b	-0.012395437
32	0xbcb70530	-0.02234134
33	0x3c98cece	0.0186533
34	0xbc773586	-0.015088445
35	0xbb8c1006	-0.004274371
36	0x3cf8e27e	0.030381437
37	0x3ce3b5e4	0.027796693
38	0xbcbb673b	-0.022876373
39	0x39d18bf0	0.00039967848
40	0xbcb732b3	-0.022363042
41	0xbcd18b01	-0.025578978
42	0xbd048331	-0.032351676
43	0x3cf987b6	0.03046022
44	0xbcdc8a68	-0.026921466
45	0x3ae566a1	0.0017501899
46	0xbbdd4436	-0.006752516
47	0xbc33d11f	-0.010975151
48	0xbcc5c339	-0.024140941
49	0xbcd10201	-0.02551365
50	0xbbc3bb4b	-0.005973255
51	0xbbfb5c1c	-0.0076708924
52	0xbc634bc4	-0.013873044
53	0xbce685d7	-0.028139992
54	0x3bba4c56	0.0056853695
55	0x3c5eb204	0.013592247
56	0x3ad21fad	0.0016031169
57	0x3cd43f03	0.025908953
58	0xbc6d0e65	-0.014468764
59	0x3c77af23	0.015117439
60	0x3c85d806	0.01633836
61	0x3ce39917	0.02778296
62	0x3cad0b51	0.02112356
63	0xbc408c00	-0.011752129
64	0xbcc2e40d	-0.023790384
65	0x3bfff2a4	0.0078109074
66	0xbc3b56dd	-0.011434284
67	0xb963ca2f	-0.00021723726
68	0x3ca03045	0.019554267
69	0x3c79ddea	0.015250662
70	0x3ca0ca0a	0.01962759
71	0x3d00cc61	0.03144491
72	0xbcebb409	-0.02877237
73	0x3c7059f9	0.014669889
74	0x3cbf3b20	0.023343623
75	0xbc200745	-0.009767358
76	0x3aa2039a	0.0012360692
77	0xbb3ea50f	-0.0029090082
78	0x3c1d5547	0.009602851
79	0xbccb0436	-0.024782281
80	0x3c504228	0.012711085
81	0x396602af	0.00021935509
82	0xbb191ccf	-0.0023363119
83	0xbbb8f025	-0.005643862
84	0x3b8692b8	0.0041068457
85	0x3cb994de	0.022653993
86	0x3d02ab64	0.031901732
87	0xbcd0c302	-0.025483612
88	0x3b4b3438	0.0031006467
89	0xbc0b893c	-0.008516606
90	0x3cececa3	0.02892143
91	0x3d03e802	0.03220368
92	0x3cc1b985	0.023648033
93	0xbbf3d980	-0.0074416995
94	0xbc89e928	-0.01683481
95	0xbcbd8ad8	-0.023137495
96	0x3b8b3af5	0.0042489716
97	0x3cb0b683	0.021571403
98	0x3c6ec8cd	0.014574242
99	0xbcfc85ba	-0.030825485
100	0x3cab269c	0.020892434
101	0x3c8d02f4	0.017213322
102	0x3c8f60e9	0.017502265
103	0xbcae4bec	-0.021276437
104	0xbbcbe5cb	-0.006222462
105	0x3bd557c7	0.006510708
106	0xbd10ac0e	-0.035320334
107	0x3c1f2235	0.009712745
108	0x3c9ad2ac	0.018899284
109	0xbc4eab60	-0.012614101
110	0x3d0e9c03	0.034816753
111	0x3c9d2dcf	0.019186882
112	0xbcdce4f7	-0.026964648
113	0x3c83b67f	0.016078232
114	0x3c7a4a05	0.015276437
115	0x3c13a4e9	0.009011486
116	0x3cf9b1c5	0.030480275
117	0xbbebdf76	-0.0071982695
118	0xbc7f2be8	-0.015574433
119	0xbc587068	-0.0132103935
120	0x3c1ff87a	0.009763831
121	0x3c31b78a	0.010846982
122	0xbbadacc5	-0.0053001367
123	0x3c386462	0.011254402
124	0x3c4799a5	0.012182628
125	0xbc8cc8cd	-0.017185593
126	0xbc82eed9	-0.015983032
127	0xbcf385a6	-0.029726814
128	0x3cc73188	0.02431561
129	0xbc82c673	-0.015963769
130	0xbd12c0f8	-0.03582856
131	0xbb79f94b	-0.0038142975
132	0xbd287073	-0.041122865
133	0xbd4cbe2c	-0.04998605
134	0x3c13da14	0.009024162
135	0x3c02bc75	0.007979502
136	0x3c9ba61b	0.019000104
137	0x3cfef9d4	0.031124987
138	0x3c3a7a14	0.011381645
139	0x3ca9e0c5	0.020737061
140	0x3c18c017	0.009323142
141	0xbc888acc	-0.016667746
142	0xbca8404d	-0.020538474
143	0x3cf25e63	0.029586023
144	0xbd0560b4	-0.032562926
145	0x3a0bea9f	0.00053373905
146	0xbb5a42ec	-0.0033304049
147	0x3b4b95af	0.003106456
148	0xbd1d9d8b	-0.038480323
149	0xbd33718e	-0.043809466
150	0xbcc4af5a	-0.024009395
151	0x3aff274c	0.0019466667
152	0xbcd3b8b2	-0.025844906
153	0xbcf1a42b	-0.029497227
154	0x3b2bf2e1	0.0026237296
155	0xbba626a8	-0.005070526
156	0xbc9c0cf5	-0.019049147
157	0x3abee4f7	0.0014564086
158	0xbcd87bc8	-0.026426211
159	0xbcb2bc75	-0.021818379
160	0x3b9b4d7e	0.0047394624
161	0x3ce0ec16	0.027456325
162	0xbcef9d68	-0.029249862
163	0xbd27b66e	-0.040945463
164	0xbc28c363	-0.01030049
165	0xbce04883	-0.027378326
166	0x3a1c21f7	0.0005955989
167	0x3d0b101d	0.033950914
168	0x3be24707	0.00690544
169	0xbc6274d7	-0.013821802
170	0xbd029462	-0.03187979
171	0x3ccab3ba	0.024743903
172	0x3aad64d8	0.0013228906
173	0xbd2988ef	-0.041390356
174	0xbd1448c8	-0.036202222
175	0xbcf2fae1	-0.029660644
176	0xbae0fc6c	-0.0017165071
177	0x3c2a6a7d	0.010401365
178	0xbd312f81	-0.043258194
179	0xbc797867	-0.01522646
180	0x3ac90482	0.0015336426
181	0xbadba26a	-0.0016756777
182	0x3c378e07	0.011203296
183	0xbc0f83bd	-0.008759436
184	0x3d03471b	0.032050233
185	0x3cad412c	0.02114924
186	0xbc90e25b	-0.01768606
187	0xbbc9321c	-0.0061400067
188	0xbcc63a06	-0.02419759
189	0xbbacd0e8	-0.005273927
190	0xbcbfd56c	-0.023417197
191	0x3c37c24a	0.011215756
192	0xbc57c624	-0.013169799
193	0xbd0ee91d	-0.034890283
194	0xbcb9e7dd	-0.022693569
195	0xbb94b1d6	-0.0045378013
196	0xb900d17a	-0.00012285067
197	0xbd11faa3	-0.035639416
198	0xbcccdb09	-0.025006788
199	0x3b2f95af	0.00267921
200	0xbc788936	-0.015169432
201	0xbd2bf932	-0.041985698
202	0xbd1b12ef	-0.037859853
203	0xbd3bbc38	-0.045833796
204	0xbd6454b4	-0.05574484
205	0xb995bbaf	-0.0002855933
206	0xbc6338c0	-0.013868511
207	0xbd1d50d2	-0.038407154
208	0xbd1b5b2c	-0.037928745
209	0xbd02a7cf	-0.031898316
210	0x3cd33e96	0.02578668
211	0xbce7b377	-0.028283818
212	0x3c4d3e4a	0.012527058
213	0x3c2c747a	0.010525817
214	0x3d238943	0.039925825
215	0xbbe1765a	-0.0068805637
216	0x3c24646e	0.01003371
217	0xbbc5e2fe	-0.0060390225
218	0x3c39a62c	0.011331122
219	0x3c7f5c15	0.015585919
220	0xbceb9365	-0.028756807
221	0x3cf5063b	0.029910197
222	0x3b10e8cb	0.0022111412
223	0x3bb1d317	0.005426775
224	0x3ca2e8a2	0.019886319
225	0x3cca001f	0.02465826
226	0xbd08595a	-0.033288337
227	0xbc881499	-0.016611384
228	0xbcffc3bc	-0.031221263
229	0xbc4d7e4b	-0.012542318
230	0xba1849f8	-0.0005809362
231	0x3bef7b64	0.0073084105
232	0xbd14abff	-0.03629684
233	0x3b57b215	0.0032912542
234	0x3bd30fbd	0.006441085
235	0xbc045a78	-0.00807821
236	0x3a98eb5f	0.0011666826
237	0xbd134a1d	-0.03595935
238	0xbc625592	-0.013814347
239	0xbaaaf4aa	-0.0013042886
240	0x3c92ab72	0.017904017
241	0x3d15a186	0.036530994
242	0xbcaf806f	-0.021423547
243	0x3c8c94bb	0.017160764
244	0xbb82559d	-0.003977491
245	0x3bbf2c8f	0.005834169
246	0x3d21e78c	0.03952746
247	0x3c8b05de	0.016970571
248	0xbced80c4	-0.028992064
249	0xbcfbc4ae	-0.030733433
250	0xbc9fb446	-0.01949514
251	0x3c29319b	0.010326768
252	0xbcad64d2	-0.021166239
253	0xbbe0989d	-0.0068541304
254	0x3b01b855	0.0019793708
255	0x3bb16eb2	0.0054148072

fc1.bias f4 [128]
0	0x3c5b8125	0.01339749
1	0x3c463749	0.012098142
2	0xbc59af9f	-0.0132865
3	0x3bf62bbe	0.0075125387
4	0x3af9be3b	0.0019053885
5	0x3ccede89	0.025252597
6	0xbc60c25e	-0.013718216
7	0xbb917549	-0.0044390303
8	0xbc0e14f3	-0.008671987
9	0x3b99419f	0.004677012
10	0x3c45f4a1	0.01208225
11	0x3d090d3d	0.03345989
12	0x3ba99656	0.005175392
13	0x3c846ae2	0.016164247
14	0xbd00429d	-0.031313527
15	0xbc932c4c	-0.017965458
16	0xbca91358	-0.020639107
17	0x3cf47b5d	0.02984398
18	0xbb52cbe0	-0.0032164976
19	0xbd078b2d	-0.033091713
20	0xbc5a081f	-0.0133076
21	0x3bbdd785	0.005793514
22	0xbb3f636e	-0.0029203552
23	0x3c20fe0e	0.009826196
24	0xbc9b1614	-0.018931426
25	0xbd0a359f	-0.033742543
26	0xbca380c5	-0.019958863
27	0xbc9f49f9	-0.019444453
28	0xb98d1481	-0.00026908892
29	0x3cc7032d	0.024293507
30	0x3d0d98b7	0.03456947
31	0x3c929c6a	0.01789685
32	0x3c450a3d	0.012026367
33	0xbc94e2d2	-0.018174563
34	0xbd0c9b20	-0.034327626
35	0xbcdb388d	-0.026760364
36	0xbbb56bca	-0.005536531
37	0x3c6e0015	0.014526387
38	0x3cc45b93	0.023969447
39	0x3ccad85f	0.024761377
40	0xbd0fe90d	-0.035134364
41	0x3bd6f14d	0.006559527
42	0xbb189a1e	-0.002328522
43	0x3c99b5dd	0.018763477
44	0xbcd5cf39	-0.026099788
45	0xbc73f8b6	-0.01489084
46	0xbcc59b87	-0.024122013
47	0xbc3d602d	-0.011558575
48	0x3b9866c1	0.004650921
49	0x3c2948d6	0.010332307
50	0xbd114db2	-0.035474487
51	0xbcbb4623	-0.022860592
52	0xbcd5de17	-0.026106877
53	0x3cbb1a9b	0.022839835
54	0xbb8631b8	-0.0040952824
55	0x3b44b6e6	0.0030016243
56	0x3d0599c4	0.032617345
57	0xbbd6a3f4	-0.0065503065
58	0x3b9bc957	0.004754226
59	0xbb04f85e	-0.002028964
60	0xbc8f2a2e	-0.017476168
61	0xbc31b58e	-0.010846509
62	0xbcf8471f	-0.03030735
63	0xbc0e5f0d	-0.008689654
64	0xbd0be9a0	-0.03415835
65	0x3d0e7bb5	0.034785945
66	0x3c5bc825	0.013414417
67	0xbca5439f	-0.020173846
68	0x3bdd0b8d	0.0067457617
69	0xbc544549	-0.012955972
70	0x3ce62044	0.028091557
71	0x3bbdaa95	0.005788157
72	0xbb31921f	-0.0027095152
73	0xbcf64516	-0.03006224
74	0xbd098173	-0.033570718
75	0xbc34340a	-0.010998735
76	0xbcc4a879	-0.024006115
77	0xbcb7c8dc	-0.022434644
78	0x3cb79184	0.022408254
79	0xbccda265	-0.02510185
80	0x3c122943	0.00892097
81	0xbc55bcdb	-0.013045515
82	0x3ac28bb7	0.0014842664
83	0xbc8f8015	-0.017517129
84	0xbd038067	-0.032104876
85	0xbb92c830	-0.0044794306
86	0xbcbf22a0	-0.02333194
87	0xbc59b772	-0.013288366
88	0x394fa18d	0.0001980124
89	0xbc6fb438	-0.01463037
90	0x3d106941	0.035256628
91	0xbc6bdffa	-0.014396662
92	0x3d04bca8	0.03240648
93	0x3c219e16	0.009864351
94	0xbcf95a0f	-0.030438451
95	0xbc31f080	-0.010860562
96	0xbcf07a6b	-0.029355248
97	0x3c803d59	0.015654253
98	0x3d0f858f	0.03503948
99	0xbc64769e	-0.013944296
100	0xbc5eb056	-0.013591846
101	0xbbd01e09	-0.0063512367
102	0xbccf5ced	-0.025312865
103	0x3b811468	0.0039392
104	0x3b868df2	0.0041062767
105	0xbd07cd3a	-0.033154704
106	0xbc8776c3	-0.016536122
107	0x3ce6998a	0.028149385
108	0xbc1ad899	-0.009451055
109	0xbceeb2e3	-0.029138034
110	0xbd0b4c9f	-0.03400862
111	0x3abb3149	0.0014281656
112	0x3c9076fd	0.017634863
113	0xbba61cc2	-0.005069346
114	0x3c75797d	0.014982578
115	0xbd11d22d	-0.03560083
116	0x3c8d438a	0.01724412
117	0x3cc9c7ab	0.024631342
118	0x3c54c681	0.01298678
119	0x3cbb9596	0.022898477
120	0xbce18d18	-0.027533099
121	0xbce73f74	-0.028228499
122	0x3cd99265	0.026559064
123	0x3cbf66cf	0.023364453
124	0xbc4cb509	-0.012494334
125	0xbcf48982	-0.029850725
126	0x3ccbcfef	0.024879424
127	0x3cc41b95	0.023938933

fc2.weight f4 [128, 128]
0	0x3d6e7edd	0.058226455
1	0xbd70b868	-0.058769614
2	0xbddd87e0	-0.10816932
3	0x3c2dbcee	0.010604126
4	0x3d09a37a	0.03360317
5	0xbb88afc4	-0.0041713435
6	0xbd86f0b8	-0.06588882
7	0x3d3edec3	0.04659916
8	0x385eafde	5.3092714e-05
9	0xbd7fbb3f	-0.06243443
10	0x3d1d3855	0.0383838
11	0xbd9a4e5d	-0.07534478
12	0x3d2d7234	0.04234524
13	0x3d71298c	0.058877513
14	0xbd455d0d	-0.048184443
15	0x3cf3277d	0.029681915
16	0xbdbbb01b	-0.09164449
17	0xbd93d42b	-0.07218202
18	0xbdeb8668	-0.11500245
19	0xbc64cc62	-0.013964744
20	0xbd81c5e2	-0.06336571
21	0x3d6c23ec	0.057651445
22	0xbc2b6fe1	-0.010463686
23	0xbd3a4b6c	-0.045482084
24	0x3ca020e0	0.019546926
25	0xbc853dbd	-0.01626479
26	0x3d09ac9d	0.033611882
27	0xbd5235c7	-0.051320817
28	0xbc7c5188	-0.015400298
29	0x3cb1b675	0.021693448
30	0x3d0670bf	0.032822367
31	0xbd028888	-0.031868488
32	0x3d976edd	0.07394192
33	0xbd007f96	-0.031371675
34	0xbd47c22c	-0.04876916
35	0xbd81252e	-0.063059196
36	0xbd5cab65	-0.053874392
37	0x3ca971e6	0.020684194
38	0xbd4bcddd	-0.049756873
39	0xbbc2b217	-0.00594164
40	0xbd59e0a7	-0.05319276
41	0xbafe5bdd	-0.001940604
42	0xbc10f113	-0.008846539
43	0x3b835c57	0.0040088105
44	0xbda5029e	-0.0805714
45	0x3cec5aca	0.028851885
46	0x3a34a45c	0.00068909465
47	0x3d88edab	0.066859566
48	0xbd047e60	-0.032347083
49	0x3d7a12b5	0.061052997
50	0xbc90c88a	-0.01767375
51	0x3c8b2391	0.016984733
52	0x3cb51e5e	0.022109207
53	0xbddbfa39	-0.107410856
54	0x3cefbe06	0.029265415
55	0x3db20dcb	0.08694037
56	0xbd624380	-0.055240154
57	0xbdb958ba	-0.090501264
58	0x3cee6351	0.029100092
59	0x3c62d46d	0.013844592
60	0x3dac642b	0.08417543
61	0xbb5404bd	-0.0032351457
62	0xbd507e60	-0.05090177
63	0xbd9b7115	-0.07589928
64	0xbceeb099	-0.029136943
65	0xbd06647b	-0.03281067
66	0xbd67e0d1	-0.056610886
67	0x3d465642	0.048422106
68	0xbc2261d9	-0.009911024
69	0xbd90a59c	-0.070628375
70	0x3d147b8b	0.036250632
71	0xbcfcc8c5	-0.030857453
72	0x3dc4155d	0.09574387
73	0x3c28ce30	0.010303065
74	0x3da74ff8	0.0816955
75	0x3d6a752c	0.05724065
76	0x3d95db5e	0.073172316
77	0xbcfe0b37	-0.031011207
78	0xbd89a4be	-0.06720875
79	0xbd8a96c2	-0.06767036
80	0x3c0215cb	0.007939766
81	0xbd5c3463	-0.053760897
82	0x3d4f21a2	0.050569184
83	0x3d3fb5fd	0.046804417
84	0xbc76adef	-0.015056117
85	0x3d749806	0.059715293
86	0x3c99c770	0.018771857
87	0xbcc8b9e6	-0.024502706
88	0x3ceefc6d	0.0291731
89	0xbdd99e0a	-0.10625847
90	0xbd75dd89	-0.060025726
91	0x3d7c04c7	0.061527994
92	0xbd8d44a7	-0.0689786
93	0xbdb2fb83	-0.08739378
94	0xbbc4df94	-0.006008098
95	0x3d52479d	0.051337827
96	0x3d7d9f62	0.061919577
97	0xbd634207	-0.05548289
98	0xbd865e5d	-0.06560967
99	0xbb1725ad	-0.0023063228
100	0xbcceec8a	-0.025259275
101	0x3c34b738	0.011030011
102	0xbcfac259	-0.03061025
103	0xbc9dc837	-0.019260509
104	0x3da29eb3	0.07940426
105	0xbd94b5fa	-0.07261272
106	0xbb020f0f	-0.0019845401
107	0x3ca9a66f	0.020709245
108	0xbca43e19	-0.020049142
109	0xbdb22fc7	-0.08700519
110	0xbc8b9c0d	-0.017042184
111	0xbda92f81	-0.08261014
112	0x3d0608ed	0.032723356
113	0xbcd76410	-0.02629283
114	0xbd928847	-0.07154899
115	0xbd57cfbb	-0.05268834
116	0x3d0f4fbf	0.03498816
117	0xbd8dfe4b	-0.06933268
118	0x3d23d1ed	0.039995123
119	0xbcbe3834	-0.02322016
120	0x3d0704a8	0.032963425
121	0xbd2db165	-0.042405505
122	0xbd796460	-0.06088674
123	0x3c87c7f7	0.016574843
124	0xbd952f0d	-0.07284365
125	0x3d0cd026	0.034378193
126	0x3dbaaf45	0.09115461
127	0x3b021b11	0.0019852559
128	0x3d61e1f6	0.055147134
129	0xbd5da708	-0.05411437
130	0x3c85c37a	0.016328562
131	0xbd9b7b9e	-0.075919375
132	0x3dcde0ba	0.10052629
133	0x3d2e5ce6	0.042569064
134	0x3d646b18	0.055766195
135	0x3d7805ad	0.060552288
136	0xbd50009f	-0.050781842
137	0xbc20f1e1	-0.009823293
138	0x3dafd7fc	0.085861176
139	0x3cc87a6d	0.02447244
140	0x3d896ac0	0.06709814
141	0x3c3e4ad2	0.011614518
142	0xbd23ce4c	-0.039991662
143	0x3dae9aa1	0.08525587
144	0xbd0a4313	-0.033755373
145	0xbd4c5e97	-0.049894895
146	0xbd711b88	-0.058864146
147	0x3c69e202	0.014275076
148	0xbc080ad1	-0.00830336
149	0x3dacd963	0.08439901
150	0xbd505cc9	-0.050869737
151	0xbdb3ae3b	-0.08773466
152	0xbd6b2fa1	-0.05741847
153	0xbd776465	-0.060398478
154	0x3d46b89a	0.048515894
155	0x3dd09454	0.10184541
156	0x3cd59cee	0.026075806
157	0xbd53af0c	-0.05168061
158	0x3d89b153	0.06723275
159	0x3c62099d	0.013796237
160	0xbda54567	-0.08069878
161	0xbd8ad9bb	-0.0677981
162	0xbcb8c96c	-0.022556983
163	0x3d97f1f1	0.074191935
164	0x3d60e36e	0.054904394
165	0xbc48d02b	-0.012256662
166	0xbcaa50fe	-0.020790573
167	0x3d39eb0a	0.045390166
168	0xbc10198f	-0.008795156
169	0xbd999ee3	-0.07501008
170	0xbd3c339d	-0.04594766
171	0x3cf5cbb8	0.030004367
172	0x3ca5a7be	0.020221587
173	0xbcb3846c	-0.02191373
174	0x3d459033	0.048233222
175	0x3d0b3b4b	0.033992093
176	0xbda1b19e	-0.07895206
177	0x3dbc8632	0.09205283
178	0xbce8c7e5	-0.02841563
179	0xbdacbf13	-0.08434882
180	0xbd10f326	-0.035388134
181	0xbce42f95	-0.02785472
182	0xbdb91784	-0.090376884
183	0x3d63ead3	0.055643868
184	0x3b2d4c44	0.0026443163
185	0x3d3d1649	0.04616383
186	0xbd0b3d66	-0.0339941
187	0xbd4f7c6b	-0.050655764
188	0x3cb7163e	0.022349473
189	0x3d272a73	0.040811967
190	0x37cb7c67	2.4257415e-05
191	0xbd93e8ca	-0.07222135
192	0xbdaf1298	-0.08548468
193	0xbb80a106	-0.0039254455
194	0xbc868bd9	-0.016424106
195	0xbcf95fa7	-0.030441118
196	0xbd7fac9e	-0.06242048
197	0x3d07cfaf	0.033157047
198	0x3db6171f	0.08891129
199	0x3d6cd761	0.05782259
200	0xbc437d58	-0.01193174
201	0xbd3b121b	-0.045671564
202	0x3c2a3477	0.010388485
203	0xbd1f6a53	-0.038919758
204	0xbc2ce708	-0.010553129
205	0xbbaa1aa3	-0.0051911636
206	0x3db5a0eb	0.08868583
207	0x3d5c0d7f	0.05372381
208	0xbda32e76	-0.07967846
209	0xbd44570e	-0.047934584
210	0xbd3c636e	-0.04599326
211	0xbd0020ca	-0.03128127
212	0xbd94f27d	-0.072728135
213	0xbbb0125d	-0.005373283
214	0xbc803f54	-0.015655197
215	0x3d7393d0	0.059467137
216	0x3d25b92c	0.040459797
217	0x3cb0f777	0.021602375
218	0x3db5590d	0.08854876
219	0x3d7fcafb	0.062449437
220	0x3c137509	0.009000071
221	0x3bce6136	0.0062982095
222	0x3d321da8	0.043485314
223	0x3d8a29ae	0.06746231
224	0x3d2f9dd7	0.042875137
225	0xbd129c5f	-0.03579366
226	0xbd74ffdb	-0.059814315
227	0xbd95c1d1	-0.07312358
228	0xbd2bc296	-0.04193362
229	0x3d7d459b	0.06183396
230	0xbd6bfa44	-0.05761172
231	0x3b673d1a	0.0035284222
232	0x3c582c99	0.013194227
233	0xbdb88eff	-0.09011649
234	0xbd2da4cb	-0.042393487
235	0xbd93926f	-0.07205664
236	0xbd6f5302	-0.05842877
237	0xbd1d1b65	-0.038356204
238	0x3ccc70c9	0.024956124
239	0xbaae6b68	-0.0013307156
240	0xbbbc5835	-0.00574782
241	0xbc9a06c7	-0.01880206
242	0xbde41387	-0.11136537
243	0x3d52dc3e	0.05147957
244	0xbd255725	-0.04036631
245	0x3d8c7363	0.06857946
246	0xbc8c7318	-0.017144725
247	0xbdba4be4	-0.09096506
248	0x3cace048	0.02110304
249	0x3d5f9ab6	0.054590903
250	0xbdbb4847	-0.09144645
251	0x3d4e376d	0.050345827
252	0x3d5f929d	0.05458318
253	0x3d35c650	0.04437858
254	0x3d88c05e	0.06677316
255	0xbd001c7a	-0.031277157

fc2.bias f4 [128]
0	0xbd7e3470	-0.062061727
1	0x3d38ac54	0.04508622
2	0xbcb483c2	-0.022035483
3	0xbd67f6ee	-0.056631975
4	0xbd1ad9f0	-0.037805498
5	0x3d6d3d4e	0.057919793
6	0x3d41bbbb	0.047298174
7	0x3d357ae4	0.04430665
8	0x3d2c0160	0.0419935
9	0x3daa7873	0.08323755
10	0xbda03f48	-0.0782457
11	0x3d9b5c82	0.07586004
12	0x3c85f2e5	0.016351173
13	0xbd4f3885	-0.05059101
14	0x3c92b6ec	0.01790949
15	0xbdae3652	-0.085064545
16	0xbd4b6a2c	-0.0496618
17	0xbd8c63b2	-0.06854953
18	0xbd862816	-0.065506145
19	0xbd917404	-0.07102206
20	0xbc8dac0f	-0.017293958
21	0x3d31c558	0.043401092
22	0x3c86e951	0.016468676
23	0x3d018471	0.031620447
24	0x3be2615f	0.00690858
25	0xbce00223	-0.027344769
26	0xbd6bb0ac	-0.057541534
27	0xbd90c5b3	-0.07068958
28	0xbda8e076	-0.082459375
29	0x3cb35012	0.021888766
30	0xbce6f23a	-0.028191675
31	0x3d41e843	0.047340643
32	0x3d16c729	0.036811028
33	0xbd52c1f3	-0.051454496
34	0xbd2989cc	-0.04139118
35	0x3b2de52f	0.002653431
36	0x3da33763	0.079695486
37	0x3d8549ac	0.065081924
38	0x3daa1dd1	0.08306468
39	0xbd751c0f	-0.059841212
40	0x3dac07c7	0.08399921
41	0x3d382400	0.044956207
42	0xbdb3580a	-0.087570265
43	0xbb6b381c	-0.0035891598
44	0xbc977a2f	-0.018490879
45	0xbd748b0a	-0.05970291
46	0x3d6791c0	0.056535482
47	0xbd61e6d0	-0.05515176
48	0x3da16beb	0.07881912
49	0x3ce337e0	0.027736604
50	0xbcaa7aea	-0.020810563
51	0xbda87293	-0.08224978
52	0x3d3ad544	0.045613542
53	0x3c90507f	0.017616509
54	0x3b40c12d	0.0029412017
55	0x3dada937	0.08479541
56	0x3d9562ee	0.0729426
57	0xbd8f8bb7	-0.0700907
58	0xbbed58dc	-0.007243259
59	0xbbd627ed	-0.0065355212
60	0xbad63691	-0.0016343166
61	0x3d1a9949	0.03774384
62	0x3d7e4d20	0.06208527
63	0x3d0c661a	0.03427706
64	0xbca7eaa2	-0.020497624
65	0x3da520cf	0.08062898
66	0x3d9a8e5a	0.07546683
67	0xbdb01d2c	-0.08599314
68	0x3cb7f94a	0.022457737
69	0xbca13527	-0.019678665
70	0x3dad6ae3	0.08467653
71	0xbd63f661	-0.055654887
72	0x3c0dfbb8	0.008665971
73	0xbd1e96cc	-0.03871803
74	0xbc7bf3bc	-0.015377935
75	0xbd103d42	-0.03521467
76	0xbdaf6763	-0.08564641
77	0x3ca535d2	0.020167265
78	0xbd939c9d	-0.07207606
79	0xbd899e5a	-0.06719656
80	0xbd0631a8	-0.0327622
81	0xbccd04b5	-0.025026659
82	0x3d3ad41f	0.04561245
83	0x3d029069	0.031876
84	0x3daf32d3	0.08554616
85	0x3c5859cc	0.013205003
86	0xbd9d147f	-0.07669925
87	0xbc8135ce	-0.015772726
88	0xbd9d6e3d	-0.07687042
89	0xbdb3f6bc	-0.08787295
90	0xbd6dd02c	-0.058059856
91	0xbd4f3b3d	-0.050593603
92	0xbd5fa2b5	-0.05459853
93	0x3d8fea95	0.07027165
94	0x3dae94ef	0.085245006
95	0xbc6b48b3	-0.014360595
96	0x3da35be3	0.079765104
97	0x386261c7	5.397366e-05
98	0x3d75d4d4	0.06001742
99	0x3d65c6f3	0.056097936
100	0xbd4211f4	-0.047380403
101	0x3c72c726	0.0148179885
102	0x3d51dfc3	0.051238786
103	0x3d53c9af	0.051706012
104	0xbd9a8ba0	-0.075461626
105	0x3d3a24e4	0.045445338
106	0x3d005e9b	0.031340223
107	0xbda7d438	-0.081947744
108	0xbdaa76bc	-0.08323428
109	0x3d92d5bc	0.07169673
110	0x3dac2815	0.084060825
111	0x3cd0e0b1	0.025497766
112	0xbd5abac5	-0.053400774
113	0x3d428f9b	0.047500234
114	0xbcf013a0	-0.029306233
115	0xbdad2780	-0.084548
116	0x3db1c651	0.08680404
117	0x3c8103b5	0.015748838
118	0x3d9f2a68	0.0777176
119	0x3d9be51e	0.0761206
120	0xba506a00	-0.00079503655
121	0x3da5c519	0.08094234
122	0xbd1432dc	-0.036181316
123	0x3bd558fe	0.006510853
124	0x3d8fe133	0.07025375
125	0x3cc6666d	0.024218762
126	0xbd6c9597	-0.057759847
127	0x3d466bfb	0.048442822

fc3.weight f4 [10, 128]
0	0xbe07000e	-0.13183615
1	0xbdc5519f	-0.096347086
2	0xbddaa0b0	-0.1067518
3	0x3e43d362	0.19123605
4	0xbd8754b0	-0.0660795
5	0x3dad0685	0.08448509
6	0xbccc5df7	-0.02494715
7	0x3e1cad95	0.15300591
8	0xbd3b7cc8	-0.045773298
9	0x3e9680dd	0.2939519
10	0xbda83b5e	-0.082144484
11	0x3d641638	0.055685252
12	0x3ea95c38	0.3307817
13	0x3e95ed64	0.29282677
14	0xbe041107	-0.1289712
15	0xb9e5d0b9	-0.00043833794
16	0x3d2cd494	0.042194918
17	0xbd2b3b95	-0.04180487
18	0xbd5a2038	-0.053253382
19	0xbe39c360	-0.18140936
20	0x3d22578e	0.03963428
21	0xbd8a06af	-0.06739556
22	0xbcf6ce68	-0.030127719
23	0x3bd022ea	0.0063518183
24	0x3d91d8f3	0.07121458
25	0xbca76fef	-0.020439116
26	0x3e0c92d0	0.1372788
27	0xbe15e39b	-0.14637606
28	0x3e6036ea	0.21895948
29	0x3e70d67c	0.2351932
30	0xbe00702a	-0.12542787
31	0xbce9abb3	-0.028524255
32	0xbd0e45de	-0.0347346
33	0x3cd5529d	0.02604037
34	0xbe13ea31	-0.14444806
35	0x3eb5a240	0.3547535
36	0xbdb2679d	-0.08711169
37	0x3e13dd5d	0.14439912
38	0xbe0fe451	-0.1405194
39	0xbd7ebbae	-0.062190704
40	0xbdf4b4ed	-0.11948571
41	0x3e48e47f	0.19618414
42	0xbcd99a2b	-0.02656277
43	0x3e0160b6	0.12634549
44	0xbe142cf2	-0.1447027
45	0x3dc06ccc	0.09395751
46	0xbdd9bd73	-0.10631838
47	0xbd84cb95	-0.06484143
48	0xbe11aa6b	-0.14225166
49	0xbdb695af	-0.08915269
50	0xbe18f4c1	-0.14937116
51	0xbe387bbf	-0.18015955
52	0x3e07c360	0.13258123
53	0xbe165d0a	-0.14683929
54	0xbd93c95e	-0.07216142
55	0xbdf64c3c	-0.12026259
56	0x3eb0b040	0.34509468
57	0xbe262bf5	-0.16227706
58	0x3e334131	0.17505337
59	0xbe01e189	-0.12683691
60	0xbe2cbf89	-0.1686994
61	0xbd84c967	-0.06483727
62	0xbdb34c8a	-0.08754833
63	0xbdff40ca	-0.124635294
64	0xbe151290	-0.14557862
65	0x3c4f663b	0.012658651
66	0xbd17e917	-0.037087526
67	0xbe303574	-0.17207891
68	0x3d8182f8	0.063238084
69	0xbdbbb6ba	-0.09165712
70	0xbd9b8255	-0.07593218
71	0xbd36fa6b	-0.04467241
72	0x3c9cf558	0.019159958
73	0xbd65bb7d	-0.056087006
74	0xbe053676	-0.13009056
75	0xbd74aef8	-0.059737176
76	0xbd4c5f6d	-0.049895693
77	0xbddabbb8	-0.10680336
78	0x3d72b76d	0.05925696
79	0xbe43c091	-0.19116427
80	0x3e0a9532	0.13533476
81	0x3aba67be	0.0014221591
82	0x3d28f314	0.041247442
83	0xbdfe4643	-0.12415745
84	0xbdb91e7b	-0.09039017
85	0xbd99fca8	-0.075188935
86	0x3b821415	0.003969679
87	0x3e8bf7a1	0.27337363
88	0xbe02e115	-0.12781174
89	0xbd8f0e11	-0.06985105
90	0x3e478fb0	0.19488406
91	0xbde87a99	-0.11351509
92	0xbdf2f882	-0.11863805
93	0xbdb4a50f	-0.08820545
94	0x3e3ffab0	0.18747973
95	0xbd8e6266	-0.06952362
96	0x3ed0896d	0.40729848
97	0xbcff65d3	-0.031176483
98	0x3dc09f2a	0.09405358
99	0x3e0f8165	0.14014204
100	0x3da406de	0.08009122
101	0xbd99f052	-0.075165406
102	0x3e167a74	0.1469515
103	0xbcb05a47	-0.021527423
104	0x3de60d6b	0.11233028
105	0xbd0998af	-0.033592876
106	0xbd9a2f47	-0.07528549
107	0xbdda25b2	-0.10651721
108	0xbe164c41	-0.14677526
109	0xbd979d18	-0.0740301
110	0xbda6d957	-0.08146923
111	0x3d796022	0.060882695
112	0xbdb4daf6	-0.08830826
113	0xbc2bbf94	-0.0104826875
114	0xbd90d026	-0.07070951
115	0x3d149cf4	0.036282495
116	0xbdee8382	-0.11646177
117	0xbe009ca7	-0.12559758
118	0xbd95b4b0	-0.07309854
119	0x3d764962	0.060128577
120	0xbd65be0a	-0.05608944
121	0xbd16cd34	-0.03681679
122	0xbdc32858	-0.09529179
123	0x3ce74483	0.028230911
124	0x3dabdc24	0.08391598
125	0xbc8106c5	-0.015750298
126	0x3eb2f35d	0.34951296
127	0x3d3620ea	0.044464983
128	0xbde5822a	-0.112064674
129	0x3e997ad2	0.29976517
130	0x3e42892e	0.18997642
131	0xbdfb2d10	-0.12264454
132	0xbe070210	-0.1318438
133	0xbb22a610	-0.002481822
134	0xbda0e824	-0.07856777
135	0xbdc54b23	-0.09633472
136	0x3da0106e	0.07815634
137	0x3d506682	0.05087901
138	0xbe00edb6	-0.1259068
139	0xbd05a348	-0.03262642
140	0xbd936515	-0.07197014
141	0x3d3cd6c6	0.04610326
142	0x3e437de1	0.19090988
143	0xbdbd7074	-0.09249964
144	0xbd9ba0b8	-0.07599014
145	0x3ddcd240	0.107822895
146	0xbe042ef3	-0.12908535
147	0xbcd37c8b	-0.025816223
148	0xbca9ef4a	-0.020743985
149	0x3dc9764c	0.098370165
150	0xbe18381f	-0.14865158
151	0xbda33ca2	-0.07970549
152	0xbd2a0338	-0.041506976
153	0x3ea29509	0.3175433
154	0xbd858301	-0.06519128
155	0xbd8e0b60	-0.06935763
156	0xbd1c2f9b	-0.038131338
157	0xbd351d0f	-0.044217166
158	0xbe0eff39	-0.13964547
159	0xbdc4a2ca	-0.09601362
160	0xbe48bfb5	-0.1960438
161	0xbc954f75	-0.018226365
162	0xbe0a70fb	-0.13519661
163	0xbda538b8	-0.08067459
164	0xbdb51856	-0.08842532
165	0xbe080951	-0.13284804
166	0x3e5089e8	0.20365107
167	0x3cf430ab	0.029808363
168	0x3e5a10dc	0.21295494
169	0xbe232299	-0.15931167
170	0x3e99ed15	0.30063692
171	0x3bcf7137	0.006330635
172	0x3e994943	0.29938707
173	0xbdfac982	-0.12245466
174	0xbe0699fb	-0.13144676
175	0xbe23b860	-0.15988302
176	0xbd881ce8	-0.066461384
177	0x3dc0b0da	0.09408732
178	0xbd90f9f5	-0.070789255
179	0x3c8ebe81	0.017424824
180	0xbe028b80	-0.12748528
181	0x3e78ea1d	0.24308057
182	0xbd0d44ec	-0.034489557
183	0xbdfaeb99	-0.12251968
184	0xbdec9df1	-0.115535624
185	0xbd4f1ef0	-0.050566614
186	0xbe2de173	-0.16980533
187	0x3e269d29	0.1627089
188	0xbd961685	-0.07328514
189	0xbc007770	-0.007840976
190	0xbdf9165a	-0.12162466
191	0xbd5c58c9	-0.05379561
192	0xbd3b9f72	-0.045806356
193	0x3e9dcfc3	0.30822572
194	0x3e5ef9e3	0.21775012
195	0x3e622e6e	0.22088024
196	0x3e427c74	0.18992788
197	0xbe32f645	-0.17476757
198	0xbe028c13	-0.12748747
199	0xbe0b5a09	-0.13608564
200	0x3c4b7a47	0.01241929
201	0xbdba33fa	-0.09091945
202	0xbe1ad071	-0.15118577
203	0x3c096d04	0.008387808
204	0x3d99733e	0.07492684
205	0xbd15d13f	-0.036576506
206	0x3e8e54bc	0.27799022
207	0xbc8c4782	-0.017123941
208	0xbdec8fa4	-0.11550835
209	0x3ea90e87	0.33018896
210	0x3dc020c9	0.09381253
211	0xbe0fc653	-0.14040498
212	0xbe3376d1	-0.17525794
213	0x3e325d43	0.17418389
214	0xbe035c22	-0.12828115
215	0xbcc8d580	-0.024515867
216	0xbd2f8efc	-0.04286097
217	0x3d26bbf5	0.040706594
218	0x3d2600fc	0.040528283
219	0x3e25e0a9	0.16198982
220	0xbb93ca09	-0.0045101685
221	0x3dede030	0.11615026
222	0xbe11b913	-0.14230756
223	0xbe1a227d	-0.15052219
224	0xbc66f1d9	-0.014095747
225	0xbded4372	-0.1158513
226	0x3c89341c	0.01674848
227	0xbd697e53	-0.057005238
228	0xbe1efaf0	-0.15525413
229	0x3d35303b	0.04423545
230	0xbe254d29	-0.16142716
231	0xbdba9b23	-0.09111621
232	0x3d6945bf	0.05695128
233	0x3ead14b1	0.3380485
234	0x3d7a0905	0.061043758
235	0xbd39c2e4	-0.045351878
236	0xbd538b3c	-0.051646456
237	0xbe234f4c	-0.15948218
238	0xbdecf508	-0.115701735
239	0x3e416e12	0.18889645
240	0xbdcda0f5	-0.10040466
241	0xbdf01102	-0.11721994
242	0x3e9c19f0	0.3048854
243	0x3e6e82c0	0.23292065
244	0xbdd36dd2	-0.10323681
245	0xbc5ccc5c	-0.013476457
246	0xbc8529ad	-0.016255224
247	0xbe0a2cb1	-0.13493611
248	0x3dd80e37	0.10549586
249	0xbe060d59	-0.13091029
250	0xbdd2666c	-0.10273442
251	0x3c39aa0b	0.011332045
252	0xbd81d5da	-0.06339617
253	0x3e18f78c	0.14938182
254	0xbd834cb7	-0.064111166
255	0xbe0201f8	-0.12696064

fc3.bias f4 [10]
0	0x3d6a3d2f	0.057187255
1	0xbd5a9230	-0.05336207
2	0x3d01dee7	0.031706717
3	0x3d303d71	0.043027345
4	0xbd192111	-0.03738505
5	0xbbc97020	-0.0061473995
6	0xbaaa9c88	-0.0013016621
7	0x3c9e76bf	0.019343732
8	0x3c6e5b79	0.014548176
9	0x3d81977f	0.06327724

batchnorm1.weight f4 [128]
0	0x3f7ab525	0.97932655
1	0x3f79db5c	0.9760034
2	0x3f7d1c20	0.9887104
3	0x3f80b39a	1.005481
4	0x3f801e23	1.0009197
5	0x3f81867d	1.0119168
6	0x3f79f64f	0.9764146
7	0x3f7c6b74	0.9860146
8	0x3f80fee2	1.0077784
9	0x3f7d784d	0.9901169
10	0x3f823b69	1.017438
11	0x3f7e70fd	0.99391156
12	0x3f7e2120	0.99269295
13	0x3f81046b	1.0079473
14	0x3f8128b5	1.0090548
15	0x3f7d125b	0.98856133
16	0x3f7e8d0e	0.9943398
17	0x3f821ccf	1.0165042
18	0x3f824f79	1.0180503
19	0x3f7cac05	0.9869998
20	0x3f8520a2	1.0400584
21	0x3f7ccb51	0.98747736
22	0x3f822c6a	1.0169804
23	0x3f814c42	1.0101397
24	0x3f7be8a9	0.98401886
25	0x3f824e1f	1.0180091
26	0x3f7c9726	0.98668134
27	0x3f7d48cb	0.989392
28	0x3f7bbc1e	0.9833392
29	0x3f7dd0ed	0.9914692
30	0x3f807fa7	1.0038956
31	0x3f8255fc	1.018249
32	0x3f786d87	0.97042125
33	0x3f7f9902	0.99842846
34	0x3f7e9338	0.9944339
35	0x3f7e956a	0.9944674
36	0x3f8045a7	1.0021256
37	0x3f810946	1.0080955
38	0x3f8308cb	1.0237058
39	0x3f81e4d0	1.0147953
40	0x3f810abd	1.0081402
41	0x3f7e8e62	0.9943601
42	0x3f7b3b46	0.9813732
43	0x3f7f9949	0.9984327
44	0x3f7ce8f6	0.9879297
45	0x3f83cf98	1.0297728
46	0x3f7f9db0	0.9984999
47	0x3f80ce45	1.0062948
48	0x3f7f72c8	0.9978452
49	0x3f7ea29a	0.9946686
50	0x3f80d663	1.0065426
51	0x3f816442	1.0108721
52	0x3f7dfa6e	0.9921025
53	0x3f7be5eb	0.983977
54	0x3f7d1912	0.9886638
55	0x3f8523eb	1.0401586
56	0x3f81381c	1.0095248
57	0x3f839c5f	1.0282096
58	0x3f82abf7	1.020873
59	0x3f8047d5	1.0021921
60	0x3f808687	1.0041054
61	0x3f7eb057	0.99487823
62	0x3f7d5ef1	0.98972994
63	0x3f80d750	1.0065708
64	0x3f7c4428	0.985415
65	0x3f813950	1.0095615
66	0x3f7f7bdc	0.9979837
67	0x3f7dd2b6	0.99149644
68	0x3f80a45d	1.005016
69	0x3f801991	1.0007802
70	0x3f7aaa39	0.9791599
71	0x3f7ef948	0.99599123
72	0x3f80e5ad	1.0070091
73	0x3f8289e2	1.0198328
74	0x3f80410f	1.0019854
75	0x3f7c6955	0.98598224
76	0x3f7eaba3	0.99480647
77	0x3f7d5b93	0.98967856
78	0x3f7f62ea	0.99760306
79	0x3f7dcc54	0.99139905
80	0x3f8141db	1.0098222
81	0x3f7991a6	0.97487867
82	0x3f7ea6cc	0.9947326
83	0x3f811241	1.0083696
84	0x3f810f65	1.0082823
85	0x3f7feb3f	0.9996833
86	0x3f7b293f	0.9810981
87	0x3f7dd65c	0.9915521
88	0x3f81f435	1.0152651
89	0x3f80a10f	1.0049151
90	0x3f7f725b	0.9978387
91	0x3f817045	1.0112387
92	0x3f820046	1.0156333
93	0x3f805163	1.0024837
94	0x3f7e8578	0.9942241
95	0x3f7ffff8	0.9999995
96	0x3f8112be	1.0083845
97	0x3f839e46	1.0282676
98	0x3f80266e	1.0011728
99	0x3f7abfe4	0.9794905
100	0x3f7eb8b7	0.995006
101	0x3f7fea87	0.99967235
102	0x3f78dc08	0.9721074
103	0x3f802bc4	1.0013356
104	0x3f7e18ac	0.99256396
105	0x3f80d233	1.0064148
106	0x3f7bd19a	0.983667
107	0x3f82435c	1.0176806
108	0x3f8192ad	1.0122887
109	0x3f80f853	1.0075783
110	0x3f7f4d85	0.9972766
111	0x3f7ec372	0.99516976
112	0x3f7fdb98	0.9994445
113	0x3f7a1aaa	0.97696936
114	0x3f82b7c0	1.0212326
115	0x3f7e0f55	0.99242145
116	0x3f8086c3	1.0041126
117	0x3f7b6e4f	0.9821519
118	0x3f80004f	1.0000094
119	0x3f7ac7df	0.9796123
120	0x3f808231	1.0039731
121	0x3f7df99b	0.9920899
122	0x3f810d66	1.0082214
123	0x3f7e3171	0.9929419
124	0x3f802e57	1.0014142
125	0x3f7d87f2	0.9903556
126	0x3f7dfca9	0.99213654
127	0x3f7eac52	0.9948169

batchnorm1.bias f4 [128]
0	0xbca5d337	-0.020242317
1	0xbcf11eba	-0.029433597
2	0xbcdeb151	-0.02718416
3	0xbbfe83af	-0.0077671628
4	0xbd152243	-0.036409628
5	0xbce91224	-0.028451033
6	0xbc6e8cd6	-0.014559945
7	0xbcbe7a6e	-0.023251738
8	0xbd4023e8	-0.046909243
9	0xbb47bb69	-0.0030476695
10	0x3c35b6de	0.011090962
11	0xbcfc4848	-0.030796185
12	0xbc4685aa	-0.012116829
13	0xbd2817a1	-0.04103816
14	0xbc952212	-0.018204723
15	0xbd100b96	-0.0351673
16	0xbce72f84	-0.0282209
17	0xbc19f0c6	-0.009395784
18	0xbcb8bdff	-0.022551535
19	0xbcb323dd	-0.021867687
20	0xbc76341e	-0.015027074
21	0xbc853c59	-0.016264128
22	0x3c61b019	0.013774895
23	0xbd2743cb	-0.040836137
24	0xbba9bd49	-0.0051800353
25	0xbaca66e0	-0.0015442036
26	0xbc8f379c	-0.017482571
27	0xbb64b3e2	-0.0034897258
28	0xbc83d2ab	-0.016091665
29	0xbb8efbaf	-0.004363499
30	0xbc991d55	-0.018690744
31	0xbd0824fc	-0.033238396
32	0xbcd770fa	-0.026298989
33	0xbc2ab5b1	-0.010419295
34	0xbc9d275f	-0.019183813
35	0xbc5f2378	-0.013619296
36	0x3af126fa	0.0018398457
37	0xbcb18c1a	-0.021673251
38	0xbca94812	-0.020664249
39	0xbc8e71e0	-0.017388284
40	0xbc126544	-0.008935276
41	0xbc721cc8	-0.01477737
42	0xbcb1ec7e	-0.021719214
43	0xbc85f2c7	-0.016351117
44	0xbc002351	-0.00782092
45	0xbc07e9ed	-0.008295518
46	0x3bdf54d9	0.0068155346
47	0xbc20d0ea	-0.009815434
48	0xbbfa978d	-0.007647461
49	0xbd00c307	-0.031435993
50	0xbc89b4fa	-0.01680993
51	0xbd1286f5	-0.035773236
52	0xbca26dcf	-0.019827751
53	0xbc12d3de	-0.008961646
54	0xbc999e1d	-0.018752152
55	0xbd3bcba5	-0.045848507
56	0xbd10cf4d	-0.035353947
57	0xbcb88ac2	-0.022527102
58	0xbc202e68	-0.009776689
59	0xbba7874b	-0.0051125637
60	0xbd1f2d12	-0.03886134
61	0xbd1c21e8	-0.038118273
62	0xbd04e54f	-0.03244525
63	0xbd0e9faa	-0.034820236
64	0xbbd8053c	-0.006592421
65	0xbb8f0101	-0.0043641333
66	0xbc8b1cb7	-0.016981466
67	0xbb3c4b38	-0.0028731357
68	0xbc46c4e9	-0.012131908
69	0xbc590ccd	-0.013247681
70	0xbbfac26c	-0.0076525714
71	0xbc3dd4d7	-0.0115863895
72	0xbca58f57	-0.020209951
73	0xbc45173b	-0.012029464
74	0xbcd5fb3d	-0.026120776
75	0xbc159615	-0.009130021
76	0xbc63cea5	-0.013904248
77	0xbb146340	-0.0022642165
78	0xbd413326	-0.04716792
79	0xbc45144b	-0.012028764
80	0xbca9936d	-0.02070018
81	0xbcaa0437	-0.020753963
82	0xbb2780ce	-0.0025558951
83	0xbc6c5f13	-0.014426964
84	0xbd22c04e	-0.039734177
85	0xbc625e39	-0.01381641
86	0xbc3672e8	-0.011135794
87	0xbbda269f	-0.006657436
88	0xbbb94cd2	-0.0056549096
89	0xbc407d58	-0.011748634
90	0xbd0a1807	-0.03371432
91	0xbcdfb218	-0.027306601
92	0xbce789e9	-0.028264003
93	0xbbb114f6	-0.00540411
94	0xbc12e740	-0.008966267
95	0x3b95151b	0.004549635
96	0xbbc0b16b	-0.005880525
97	0xbce9aa09	-0.028523462
98	0xbb388be2	-0.0028159549
99	0xbca0e1df	-0.019638954
100	0xbb8c7dd9	-0.004287463
101	0xbc083eb8	-0.008315735
102	0xbd2aead0	-0.04172784
103	0xbba6b02c	-0.0050869193
104	0xbc7d5455	-0.015462001
105	0xbc91fd6d	-0.017821038
106	0xbce5cbcf	-0.028051285
107	0xbceabd00	-0.028654575
108	0xbcdd8cef	-0.027044741
109	0xbcdbc3c4	-0.026826747
110	0xbcb2e9fb	-0.021840086
111	0x39cce187	0.00039077943
112	0xba9dbe59	-0.0012034877
113	0xbc9a70bb	-0.018852582
114	0xbc46cbbc	-0.012133535
115	0xbca932d6	-0.020654123
116	0xbce1edc7	-0.027579201
117	0x3bb9bd6a	0.005668332
118	0xbc66e3d0	-0.014092401
119	0xbc85c0e7	-0.016327335
120	0x3c99e4c3	0.01878584
121	0xbccaa8f0	-0.024738759
122	0xbd0ff735	-0.035147864
123	0xbca9db13	-0.020734346
124	0xbb9d3418	-0.00479747
125	0xbc643072	-0.013927566
126	0xbc4c18ab	-0.012457053
127	0xbadf98b8	-0.0017059064

batchnorm1.running_mean f4 [128]
0	0x3ea85cbc	0.3288325
1	0xbe8d08a2	-0.2754565
2	0x3d0f79e8	0.03502837
3	0x3f24b22f	0.64334387
4	0xbed53e46	-0.41649073
5	0x3f58f089	0.8474203
6	0x3f4bd513	0.79622
7	0xbd8c1aa1	-0.068410166
8	0xbecfe4a9	-0.4060414
9	0xbd129a4f	-0.03579169
10	0x3eabfab0	0.33589697
11	0x3f005bed	0.5014027
12	0xbf3424b8	-0.7036853
13	0xbdb98f69	-0.090605564
14	0xbe50b574	-0.20381719
15	0xbe855ced	-0.2604746
16	0x3de9e1a8	0.11419994
17	0x3f00cb80	0.50310516
18	0x3f2f630b	0.685105
19	0x3d9ac540	0.07557154
20	0xbdb86ef8	-0.090055406
21	0xbf2fb90e	-0.68641746
22	0xbeacf4b2	-0.33780438
23	0x3d52cbd5	0.05146392
24	0xbe7a79aa	-0.24460474
25	0xbed623f1	-0.41824296
26	0x3cfb609f	0.030685721
27	0x3ea32cd1	0.3187013
28	0xbf345d55	-0.70454913
29	0x3e9861a9	0.2976201
30	0xbe313029	-0.17303528
31	0x3d1d4614	0.03839691
32	0xbe3451c5	-0.17609318
33	0xbe51de84	-0.20495039
34	0xbe48acf0	-0.1959722
35	0x3e2824d5	0.164203
36	0x3f1e5ec6	0.6186336
37	0x3e9bcceb	0.30429778
38	0xbf20ffc6	-0.6289028
39	0x3e65b192	0.22431019
40	0xbea9c0b3	-0.3315483
41	0x3b9c1621	0.00476338
42	0x3f4d2500	0.8013458
43	0xbe6145b6	-0.21999249
44	0xbe0f2382	-0.13978389
45	0xbe8daaae	-0.2766928
46	0x3d9433e7	0.07236462
47	0xbf90b7d3	-1.1306099
48	0x3e326acb	0.17423551
49	0xbeaa7dca	-0.33299094
50	0x3e922cb4	0.2854973
51	0xbe3ffd18	-0.18748891
52	0xbe7b47fe	-0.24539182
53	0x3eee2edd	0.4652013
54	0xbe62c9af	-0.22147249
55	0x3d939a0c	0.072071165
56	0xbdf490b7	-0.11941665
57	0x3e746568	0.23866808
58	0x3cbfeb75	0.023427704
59	0xbd165bbc	-0.03670858
60	0x3f15bf80	0.5849533
61	0xbeca5403	-0.3951722
62	0xbfc05830	-1.5026913
63	0xbfc1c43a	-1.5138009
64	0xbf34aeda	-0.705793
65	0x3f88ce9f	1.0688056
66	0x3f02fc92	0.5116664
67	0x3f37c4ba	0.71784556
68	0x3e2ed881	0.17074777
69	0xbf52e197	-0.8237547
70	0x3ea4132e	0.32045883
71	0xbd96d552	-0.07364906
72	0x3e35b426	0.17744502
73	0x3e918bd8	0.28427005
74	0xbebee1ff	-0.37281796
75	0xbb15911e	-0.0022822092
76	0xbea78220	-0.32716465
77	0xbe5f5107	-0.21808253
78	0x3e201217	0.156319
79	0xbf099deb	-0.5375659
80	0x3eec47be	0.46148485
81	0xbee77cdb	-0.45212445
82	0x3dd0fae0	0.102041006
83	0xbe0cc3be	-0.13746545
84	0xbeae4e0a	-0.34043914
85	0xbf089bc3	-0.53362674
86	0x3e300e4d	0.17192955
87	0xbe058d45	-0.13042171
88	0xbef57781	-0.47942737
89	0xbe821955	-0.25409952
90	0xbf6bf00b	-0.9216315
91	0x3e5a78f2	0.213352
92	0xbd0f76fd	-0.035025585
93	0xbfc89f9a	-1.5673707
94	0xbe1ab68b	-0.15108697
95	0xbeb424a0	-0.35184193
96	0xbf08b75b	-0.5340478
97	0x3e10ec63	0.14152674
98	0xbf32b6d2	-0.6981021
99	0x3f0b44cc	0.5440185
100	0xbd3062a1	-0.04306281
101	0xbf4af0ac	-0.79273486
102	0xbe570c48	-0.21000779
103	0xbf09ecd8	-0.5387702
104	0x3ec83944	0.3910619
105	0x3cf8e2d5	0.0303816
106	0x3e5670d0	0.20941472
107	0x3e9d4954	0.30720007
108	0xbf256335	-0.646045
109	0xbf5457a7	-0.82946247
110	0x3caefbdb	0.021360328
111	0x3ea6e3d1	0.32595685
112	0x3e524ac1	0.20536329
113	0x3ea80e22	0.32823282
114	0x3e1dbb8a	0.15403572
115	0xbf686b93	-0.90789145
116	0xbf0afeca	-0.5429503
117	0xbc50d8ec	-0.012747031
118	0xbf4fc6bb	-0.81162614
119	0xbd75ac7c	-0.059978947
120	0x3c51bd63	0.012801501
121	0xbddbf0a5	-0.10739259
122	0x3ea3e914	0.32013762
123	0xbf5e49fa	-0.8683163
124	0x3e0370a2	0.12835935
125	0xbf7ad893	-0.97986716
126	0x3ecc7669	0.3993409
127	0xbcf954fc	-0.030436032

batchnorm1.running_var f4 [128]
0	0x3f28f029	0.65991455
1	0x3f7ac1db	0.9795205
2	0x3fb9586e	1.4480112
3	0x3fb7be2d	1.4354912
4	0x3fc65070	1.5493298
5	0x3fba5244	1.4556355
6	0x3f719ad0	0.9437685
7	0x3fa5cef4	1.2953782
8	0x3fac8564	1.3478208
9	0x3f86505b	1.0493273
10	0x3f9ffc67	1.2498902
11	0x3f8567a1	1.042225
12	0x3f9f3c14	1.2440209
13	0x3f919811	1.1374532
14	0x3f8bc7ef	1.092039
15	0x3f8b360f	1.0875872
16	0x3f87c48d	1.0606858
17	0x3fa8a9c7	1.3176812
18	0x3fd0bf56	1.6308391
19	0x3f7fa400	0.9985962
20	0x3fc8f41e	1.5699499
21	0x3f88ede2	1.0697596
22	0x3f9e2ec5	1.2358023
23	0x3f8427ed	1.0324684
24	0x3f7a2f13	0.9772808
25	0x3fac0d60	1.3441582
26	0x3f6096bd	0.8773001
27	0x3fb06457	1.3780621
28	0x3f8af317	1.0855435
29	0x3f8ba1bf	1.0908736
30	0x3fa0278d	1.251207
31	0x3fb963e4	1.4483609
32	0x3f4cbbcd	0.7997406
33	0x3f8d63b5	1.1046053
34	0x3fbef338	1.4917974
35	0x3f8a2caa	1.079488
36	0x3f9239fd	1.1423947
37	0x3f7e74c9	0.9939695
38	0x3fa601e3	1.2969326
39	0x3fd1986e	1.6374643
40	0x3f9b2377	1.2120198
41	0x3f98eaac	1.1946616
42	0x3fb1020f	1.3828753
43	0x3f37a21a	0.7173172
44	0x3f7ee85f	0.9957332
45	0x3f9ffd16	1.2499111
46	0x3f9019e4	1.1257901
47	0x3fa9a782	1.3254244
48	0x3f8f6a40	1.12043
49	0x3f40cf7a	0.75316584
50	0x3fcc8d73	1.5980667
51	0x3f81507b	1.0102686
52	0x3f8f20bd	1.1181866
53	0x3f44b2cd	0.7683533
54	0x3f6db03f	0.92847055
55	0x3f97acfb	1.1849664
56	0x3fcfba5d	1.6228749
57	0x3ffb7307	1.9644479
58	0x3fa053b2	1.2525542
59	0x3fe7953d	1.8092419
60	0x3fab7366	1.3394592
61	0x3fa05a5d	1.2527577
62	0x3f84b54b	1.0367826
63	0x3fb439c1	1.4080125
64	0x3f91f86a	1.1403935
65	0x3fbb125a	1.4614975
66	0x3fb44bf6	1.4085681
67	0x3fb94dd1	1.4476873
68	0x3faeb64c	1.3649383
69	0x3f8801fc	1.0625606
70	0x3f43f274	0.7654183
71	0x3fa3d070	1.2797985
72	0x3f227332	0.63457024
73	0x3fa38825	1.2775923
74	0x3f744807	0.95422405
75	0x3f742dcc	0.9538238
76	0x3fadce16	1.3578517
77	0x3fb35e10	1.4013081
78	0x3f97e276	1.1865985
79	0x3f3fd29a	0.7493073
80	0x3f6f4437	0.9346346
81	0x3f52295f	0.8209438
82	0x3fbc8a2d	1.4729668
83	0x3fc10992	1.5081046
84	0x3f5d6cdc	0.8649423
85	0x3f8e9de3	1.1141933
86	0x3f804d53	1.0023597
87	0x3f20805f	0.6269588
88	0x3fd9da60	1.7019768
89	0x3f81f95f	1.0154227
90	0x4005c742	2.0902867
91	0x3fbb4f7b	1.463363
92	0x3f9c224a	1.2197964
93	0x3feb53c3	1.8384937
94	0x3f7e3880	0.9930496
95	0x3fc62c92	1.5482352
96	0x3fa3b994	1.2791009
97	0x3f6554c0	0.89582443
98	0x3fd2778c	1.6442733
99	0x3f93b352	1.1539099
100	0x3fe55b8f	1.7918566
101	0x3f973315	1.1812464
102	0x3f94297d	1.1575161
103	0x3fc2500b	1.5180677
104	0x3fafb22f	1.3726252
105	0x3fa0bb39	1.2557136
106	0x3faf6f72	1.3705885
107	0x3f99f795	1.2028681
108	0x3fb0a207	1.3799447
109	0x3f8a0c10	1.0784931
110	0x3f3acd3b	0.72969407
111	0x3f59647c	0.8491895
112	0x3f6648a3	0.89954585
113	0x3f69dea5	0.91355354
114	0x3f9a5731	1.2057859
115	0x3faa1287	1.3286904
116	0x3f9ff0e5	1.249539
117	0x3f6e1fb1	0.9301711
118	0x3faa1648	1.328805
119	0x3f73bd06	0.952103
120	0x3fb95c2f	1.4481257
121	0x3f71b866	0.94421995
122	0x3f9e1e9e	1.2353094
123	0x3f8086bc	1.0041118
124	0x3f902f0f	1.1264361
125	0x3f9f58f7	1.2449025
126	0x3fbe0f34	1.484839
127	0x3f8b6ddd	1.0892903

batchnorm2.weight f4 [128]
0	0x3f8bafb3	1.0912994
1	0x3f8bdcda	1.0926774
2	0x3f86de62	1.0536616
3	0x3f8bfe93	1.0937065
4	0x3f8a5a5d	1.0808827
5	0x3f8d6b06	1.1048286
6	0x3f881a2a	1.0632985
7	0x3f834642	1.0255816
8	0x3f884d84	1.0648656
9	0x3f86cda9	1.0531512
10	0x3f8d0561	1.1017267
11	0x3f887111	1.0659505
12	0x3f897d3f	1.0741347
13	0x3f8df689	1.1090862
14	0x3f8b8cea	1.0902379
15	0x3f8a8f3e	1.0824964
16	0x3f8d355d	1.103191
17	0x3f854d66	1.0414245
18	0x3f8c2518	1.094882
19	0x3f8ef518	1.1168547
20	0x3f8446fd	1.0334164
21	0x3f8b4091	1.0879079
22	0x3f8a8460	1.0821648
23	0x3f88029a	1.0625794
24	0x3f85b9c8	1.0447321
25	0x3f88a932	1.0676634
26	0x3f86faed	1.0545326
27	0x3f8c06ca	1.0939572
28	0x3f885edb	1.0653948
29	0x3f8b3f17	1.0878628
30	0x3f8c62e3	1.0967678
31	0x3f86335d	1.0484425
32	0x3f8dc3cc	1.1075377
33	0x3f8e86e5	1.1134917
34	0x3f8c0d61	1.0941583
35	0x3f8abd4b	1.0839018
36	0x3f8cf480	1.1012115
37	0x3f87d9ad	1.0613304
38	0x3f8d2436	1.1026676
39	0x3f88f3f2	1.0699446
40	0x3f87ed78	1.0619345
41	0x3f8aa33f	1.0831069
42	0x3f8a00fe	1.0781553
43	0x3f8d0a7c	1.1018825
44	0x3f87044b	1.0548185
45	0x3f8a982e	1.0827692
46	0x3f876053	1.0576271
47	0x3f8a02ad	1.0782067
48	0x3f896561	1.0734063
49	0x3f86655d	1.0499684
50	0x3f8d853a	1.1056283
51	0x3f8937f1	1.0720197
52	0x3f89aa82	1.075516
53	0x3f908e4b	1.1293424
54	0x3f866920	1.0500832
55	0x3f8b5105	1.08841
56	0x3f88f5da	1.0700028
57	0x3f9297fa	1.145263
58	0x3f8f2300	1.1182556
59	0x3f8576be	1.0426862
60	0x3f900157	1.1250409
61	0x3f8ea237	1.1143254
62	0x3f8b2f24	1.0873761
63	0x3f896754	1.0734658
64	0x3f8dcf66	1.1078918
65	0x3f897424	1.0738568
66	0x3f86fe65	1.0546385
67	0x3f885e53	1.0653785
68	0x3f86f639	1.0543891
69	0x3f8d3c56	1.1034038
70	0x3f87cd09	1.0609447
71	0x3f8b4ba8	1.0882463
72	0x3f86cf5a	1.0532029
73	0x3f883eaf	1.064413
74	0x3f8a7172	1.0815871
75	0x3f8557ce	1.0417421
76	0x3f8a1259	1.0786849
77	0x3f8daa3a	1.1067574
78	0x3f8b163e	1.0866163
79	0x3f8536af	1.0407313
80	0x3f843295	1.0327936
81	0x3f87f751	1.062235
82	0x3f90cb88	1.1312113
83	0x3f94c89d	1.1623722
84	0x3f8af3a9	1.0855609
85	0x3f8bf43e	1.0933912
86	0x3f87bcb1	1.0604459
87	0x3f8be3be	1.0928876
88	0x3f8c80ab	1.0976766
89	0x3f862fb6	1.048331
90	0x3f86397f	1.0486296
91	0x3f842614	1.032412
92	0x3f848b2f	1.0354975
93	0x3f890416	1.0704372
94	0x3f8b506a	1.0883915
95	0x3f8c35a6	1.0953872
96	0x3f8aa827	1.0832566
97	0x3f8720b3	1.0556854
98	0x3f852dd5	1.0404612
99	0x3f83fc70	1.0311413
100	0x3f8d2fbd	1.1030194
101	0x3f8afc0b	1.0858167
102	0x3f91e56e	1.1398141
103	0x3f88aaf6	1.0677173
104	0x3f85ccaf	1.045309
105	0x3f893595	1.0719477
106	0x3f8d9e1f	1.106388
107	0x3f94df1f	1.1630591
108	0x3f8a4431	1.080206
109	0x3f8bd5b4	1.0924592
110	0x3f9a987d	1.2077786
111	0x3f896f90	1.0737171
112	0x3f864fef	1.0493144
113	0x3f83bbb1	1.0291654
114	0x3f89e44b	1.0772794
115	0x3f859fb4	1.0439363
116	0x3f8d27a1	1.1027719
117	0x3f8278f7	1.0193166
118	0x3f84dab2	1.037924
119	0x3f87f4bd	1.0621563
120	0x3f8558e6	1.0417755
121	0x3f914274	1.1348405
122	0x3f895a8c	1.0730758
123	0x3f8c06e4	1.0939603
124	0x3f875496	1.0572689
125	0x3f84aa1c	1.0364413
126	0x3f8a657c	1.081222
127	0x3f88fc56	1.0702007

batchnorm2.bias f4 [128]
0	0x3d4e562f	0.05037516
1	0x3d10475e	0.03522431
2	0x3d23aec3	0.039961588
3	0x3d0cf1f2	0.034410425
4	0x3d40e8b2	0.047096916
5	0x3d5923ed	0.053012777
6	0x3d1e8f85	0.03871109
7	0x3c6ae303	0.01433635
8	0x3d21475a	0.039374687
9	0x3d051170	0.032487333
10	0x3d78953b	0.060689192
11	0x3cef3d09	0.029203909
12	0x3d391477	0.045185532
13	0x3d9ad456	0.07560031
14	0x3d352e94	0.044233873
15	0x3d830e32	0.06399192
16	0x3d6771d7	0.05650505
17	0x3cc8f27b	0.024529686
18	0x3d4fd399	0.050738905
19	0x3cd19e4e	0.02558818
20	0x3cb3f100	0.021965504
21	0x3d146b76	0.036235295
22	0x3d77bd58	0.060483307
23	0x3d1c67e3	0.03818501
24	0x3ce89fca	0.028396506
25	0x3cc3a847	0.023883952
26	0x3d36b23e	0.04460358
27	0x3d3391b8	0.04384014
28	0x3d19a3bc	0.037509665
29	0x3d70921c	0.05873309
30	0x3d955059	0.07290716
31	0x3d4166a5	0.04721703
32	0x3d70b210	0.058763564
33	0x3d9c6287	0.0763598
34	0x3d8a7c6d	0.067620136
35	0x3d55e2f8	0.052218407
36	0x3d42c05f	0.04754674
37	0x3d230216	0.03979691
38	0x3d55ca12	0.052194662
39	0x3d41e713	0.04733951
40	0x3d57dc5a	0.052700378
41	0x3d90f2d8	0.07077569
42	0x3d503120	0.0508281
43	0x3d4f4bda	0.050609447
44	0x3cb88e69	0.022528844
45	0x3d70e647	0.05881336
46	0x3d25366f	0.040335115
47	0x3d06456b	0.032781046
48	0x3d3e4c28	0.046459347
49	0x3cd23361	0.025659265
50	0x3d9859be	0.07438992
51	0x3d577245	0.05259921
52	0x3d4aca05	0.049509067
53	0x3d8e3285	0.069432296
54	0x3d1c6f6a	0.03819219
55	0x3d3c4c92	0.04597146
56	0x3cf11960	0.029431045
57	0x3d882274	0.066471964
58	0x3d901ae3	0.07036378
59	0x3d0df58e	0.034658007
60	0x3d99e80a	0.07514961
61	0x3d2f5bac	0.042812034
62	0x3d535f68	0.05160466
63	0x3d0d642b	0.034519356
64	0x3d815563	0.06315114
65	0x3d15230d	0.03641038
66	0x3d0dfa91	0.034662787
67	0x3d3cb431	0.04607028
68	0x3cefed7a	0.029288042
69	0x3da1bcbf	0.078973286
70	0x3d79341f	0.060840722
71	0x3d3a3aff	0.04546642
72	0x3d36210e	0.044465117
73	0x3d0a935a	0.03383193
74	0x3d4cb148	0.049973756
75	0x3d0164a1	0.031590108
76	0x3d3032b7	0.043017115
77	0x3d8bc06a	0.068238094
78	0x3d2f8a27	0.04285636
79	0x3cab09ba	0.020878661
80	0x3cc18b5d	0.023626024
81	0x3c922d9f	0.01784402
82	0x3d8e4a87	0.06947809
83	0x3d11b767	0.035575297
84	0x3da1441e	0.078743204
85	0x3d45aeda	0.048262455
86	0x3d216d19	0.039410684
87	0x3d109936	0.035302363
88	0x3d6c5bac	0.057704613
89	0x3c966c7e	0.01836228
90	0x3d19769a	0.037466623
91	0x3c516629	0.012780705
92	0x3ce4d9f1	0.027935954
93	0x3d495e86	0.04916241
94	0x3d1bd546	0.03804519
95	0x3d500a0c	0.05079083
96	0x3d0862e9	0.033297453
97	0x3d049d6e	0.0323767
98	0x3d04a019	0.032379244
99	0x3c69d35a	0.014271582
100	0x3d2e2310	0.042513907
101	0x3d06f87e	0.032951824
102	0x3d223868	0.039604574
103	0x3d249f56	0.040191017
104	0x3d3ce949	0.046120916
105	0x3cd6fbf1	0.026243182
106	0x3d4c3050	0.049850762
107	0x3d700a75	0.058603723
108	0x3d0a7b04	0.033808723
109	0x3d6175ca	0.055043973
110	0x3de71cd7	0.11284798
111	0x3c85c143	0.016327506
112	0x3d033382	0.032031544
113	0x3c30fcc5	0.010802452
114	0x3d1679a6	0.036737107
115	0x3cbd56ed	0.023112739
116	0x3d97aaaf	0.07405602
117	0x3c71499a	0.014727021
118	0x3d1b7153	0.03794987
119	0x3d178952	0.036996193
120	0x3c589c5d	0.013220874
121	0x3da6cd32	0.08144607
122	0x3d522ca8	0.05131212
123	0x3d141518	0.03615293
124	0x3d115a36	0.035486422
125	0x3d04c2db	0.03241239
126	0x3d0f4f1b	0.03498755
127	0x3cec3f90	0.028838903
