examples/tfe_benchmarks/models/tfe_network_b.pht.tar (torch_old, 277058 bytes, 34 tensors)

conv1.weight f4 [16, 1, 5, 5]
00000000: 68a9 5d3c c20b 46be 9328 0b3d dd74 23be
00000010: a466 1cbe 4ca3 27be ed94 c13d 4321 87bc
00000020: d84f 64be 638b 033e 1946 d93d d0aa 323e
00000030: 0dfe 353e 195d ce3c 3066 1ebe f717 ebbd
00000040: 6b9c bb3d fad1 243e 9294 66be 3af9 ae3c
00000050: 81de 1f3e 472a a9bd a239 44be 48c8 e13d
00000060: 55df 06be 63cf 213c 4191 87be dfab 7c3d
00000070: e1c2 4abd cd8e 3e3e 75e6 f0bd 1bb9 bc3d
00000080: 24de f13d a296 b93d 1068 97bd 8719 b93d
00000090: 8b85 603e 1523 f4bc 479f 30bc bbad 1bbe
000000a0: 8bf7 67bd 3cc6 8d3d c420 4abe c989 39be
000000b0: 661d 8bbb 93ba 9f3c 5ad5 29be 7481 28bb
000000c0: 4bdf 493e fdcc 433d 2259 f6bd 6ea6 3c3e
000000d0: df3f d73d 3efc 653d 0115 583e ec01 1c3e
000000e0: 8d34 c03d a7d6 62bd f32c 363d 6f5d 67bd
000000f0: 018f 58bd be5c d73d e78c ef3d 0baf a5bd
00000100: c9b2 c93d 95aa 09be daee f73d 2e2d 60be
00000110: 9e7b 44be a9cc 8f3d 4d79 14be fdc8 9abb
00000120: 5916 6fbe 1970 5a3d 431a 55bd 4382 fabd
00000130: 8557 abbd 5517 013e 7b26 f33c 6651 683e
00000140: 0a47 26be 9a16 96bb 31fa 5ebe ecc9 6fbe
00000150: 5cbf 34be 67f5 353d 1147 18be 04e2 13bb
00000160: 0406 9bbd 6b7b a2bd 05ba 233e c42c c4bb
00000170: 71c7 1a3e 7cf3 30bd e426 bfbd bcec 0dbd
00000180: 7fa0 4c3c de1c 63bc 252e e53d 94d8 393d
00000190: 54d9 c53b 208b 40bd 3848 d2bd a6c6 18bd
000001a0: 0d3e d6bd 5dc5 fb3d c949 20be 6f49 713d
000001b0: cec2 5cbe e667 2b3e ff43 093d a701 68bd
000001c0: 7e18 74be de66 273e 4a4a bbbd d7f5 1abe
000001d0: adf0 0abc 132d d8bd f264 e13c eb82 bb3d
000001e0: 3800 7e3d c0fb 51be 4c3b 38be f113 efbc
000001f0: ff28 173e a936 553d 8194 253d 9850 30be
00000200: 0f44 313d c3cb 3f3e 9904 333e a1ed 073e
00000210: bca8 ad3d ed44 4cbc ac62 113d 9eb1 72bc
00000220: c8dd 3abe c16a 51be 0298 ff3d 9395 2c3e
00000230: 0ae1 71bd 543c 993d 2353 063e 8d8c 27be
00000240: ddb5 343d 2746 1f3d 478d 533e ba93 413e
00000250: 2a20 8abd b73a 17bd 0e69 af3d 760c 9e3c
00000260: 94d6 0b3d 8727 8f3c 3c8e 8c3e e3bb 24be
00000270: cafd bebc cd04 a5bd 98fb 6dbe a448 bcbd
00000280: a81b df3d bf8c 86bd f1a7 83be b485 3f3c
00000290: 99a5 8c3d 8f63 323d a4bd a43d dfdc f0bd
000002a0: fd46 fabd bcd3 733d b746 113e 7b56 303e
000002b0: 5f96 183e 9ee6 2fbc 921b 82bd b929 8abd
000002c0: 7d9b b5bd c7ea 0dbe 13fe 41be 7b36 00be
000002d0: e329 0abe 84a6 00be 94bb 09be 0c39 27bd
000002e0: 5e36 46bc a3b8 3ebe 0656 e8bc 6efc bebd
000002f0: 3763 f73d 33d9 ec3c c2fe 02be ccb4 ee3d
00000300: 0267 4a3e acb1 b83d 4ac5 423e 3144 9b3d
00000310: 156d 283e 8d36 0cbe 16b4 bd3c 383e 923d
00000320: 1db7 bb3d f714 0abe d67b 93bd 714d d0bd
00000330: 042a b7ba f689 f0bd f654 31be 248e 093e
00000340: 0ecc 1f3e cbe2 62be 1cfe f93c 607a 9dbc
00000350: 6a66 733d 07d0 74bc 58bb 04be 5e7c 18bd
00000360: 6fc7 f43d b53f ff3c a689 30be e4ee 31bd
00000370: 4afc febc 2fc0 3cbe 6e53 633d 17d4 52be
00000380: f66a 23bd 9789 dbbc 8997 17be 69de fa3c
00000390: 82d4 62be 361e e8bb 3b56 393e 52eb 7a3d
000003a0: f836 5c3e 1928 f0bd 67b0 3bbd 510c 39bd
000003b0: 8a3e 85bd 651c 843e daea ffbc 0078 52be
000003c0: 6e1b 4fbe 186b e2bd 9d8c 443d 8156 083e
000003d0: f8d5 fe3c bf18 103e c57a 40be 1576 8cbc
000003e0: c9a4 243a 5b82 ad3d b278 883d 50e7 4b3e
000003f0: 7c93 693d a855 64bd 5123 3abd d663 81bd
0.013529159 -0.19340423 0.03397424 -0.15962549 -0.1527353 -0.16370887 0.094522335 -0.016495353
-0.22296083 0.1284614 0.10609073 0.17447972 0.17772694 0.025190877 -0.15468669 -0.1147918
0.09160694 0.16095725 -0.22517613 0.021359075 0.15612222 -0.08260017 -0.1916261 0.11024529
-0.13171132 0.009876105 -0.26478007 0.061687347 -0.049502257 0.18609162 -0.11762706 0.092149936
0.11809948 0.09061934 -0.07392895 0.09038072 0.21925943 -0.029801885 -0.010780162 -0.15202992
-0.05663256 0.06922576 -0.19739062 -0.18118967 -0.004245448 0.019498145 -0.16585293 -0.0025711926
0.19714086 0.047802914 -0.120287195 0.18422863 0.10510229 0.05614876 0.21101762 0.15235108
0.09385023 -0.05538049 0.04447646 -0.05648559 -0.052870754 0.10515736 0.11696797 -0.080900274
0.09848554 -0.13443978 0.12106104 -0.21892235 -0.19187781 0.07021458 -0.14499398 -0.0047236667
-0.23348369 0.05332956 -0.052027 -0.12231877 -0.083663024 0.12606557 0.029681435 0.22687301
-0.16238037 -0.004580331 -0.21775128 -0.23416871 -0.17651123 0.044423487 -0.1487086 -0.0022565136
-0.07569507 -0.07933696 0.1598893 -0.005986782 0.15115143 -0.043200955 -0.0933359 -0.034649596
0.012489437 -0.013861863 0.11190442 0.04537256 0.0060378704 -0.04700768 -0.10267681 -0.03729882
-0.10461054 0.122935034 -0.15653147 0.058907922 -0.21558687 0.16738853 0.03351211 -0.0566422
-0.23837468 0.16347834 -0.09145029 -0.15132843 -0.008480233 -0.10555472 0.027513955 0.0915583
0.062011927 -0.20506191 -0.1799137 -0.029184313 0.14761733 0.05205408 0.040424827 -0.17218244
0.043277796 0.18730073 0.17482223 0.13274242 0.08479449 -0.012467605 0.03549449 -0.014812855
-0.18248665 -0.2045088 0.12480165 0.16853933 -0.059052505 0.0748221 0.13117652 -0.1636221
0.04411875 0.038885262 0.20659362 0.1890401 -0.06744416 -0.03692123 0.085649595 0.019293051
0.034140185 0.017474903 0.27452266 -0.16087298 -0.023314375 -0.08057556 -0.23240507 -0.091935426
0.10893947 -0.06569814 -0.25714067 0.011689592 0.06867523 0.043551978 0.080439836 -0.11760878
-0.12220571 0.059528098 0.14187132 0.1722049 0.14901112 -0.010736136 -0.06352915 -0.06746239
-0.08867548 -0.13859092 -0.18944578 -0.12520783 -0.13492541 -0.1256352 -0.13450462 -0.04082589
-0.012097923 -0.18625121 -0.028361332 -0.09325491 0.120794706 0.028912162 -0.12792495 0.11655578
0.19765857 0.09018263 0.19020572 0.07581366 0.16447861 -0.13692684 0.02315716 0.071407735
0.091657855 -0.1348456 -0.07201354 -0.10171021 -0.0013974314 -0.11745064 -0.17317566 0.13433129
0.15605184 -0.22156827 0.030516677 -0.019223392 0.05942384 -0.014942176 -0.12962091 -0.03722798
0.119521014 0.031158308 -0.17240009 -0.043440714 -0.03112616 -0.18432687 0.055499487 -0.20588718
-0.039896928 -0.026799006 -0.148039 0.030623632 -0.22151378 -0.0070836795 0.180993 0.061259575
0.21505344 -0.11726398 -0.045822527 -0.04517776 -0.06506069 0.25802913 -0.031239916 -0.20553589
-0.20225307 -0.11055583 0.04798566 0.13314249 0.031107888 0.1407194 -0.18796833 -0.01714615
0.00062806584 0.08472129 0.06663646 0.19912457 0.057025418 -0.05574575 -0.045443837 -0.0631787

conv1.bias f4 [16]
00000000: 7e5b 7e3d 2382 4cbe 4438 23be 701f 0b3d
00000010: 2ffa a63d d225 28be 6837 063e 8b31 0c3e
00000020: e288 353e 1607 0b3e 3109 f53d 1398 003e
00000030: 0d39 9ebd a88b 403e 626f 413e 99c6 41bd
0.062098972 -0.19971518 -0.15939432 0.033965528 0.081531875 -0.16420677 0.13107073 0.13690774
0.17727998 0.13576922 0.11964644 0.12558012 -0.07725725 0.18803275 0.18890145 -0.047308538

conv2.weight f4 [16, 16, 5, 5]
00000000: 6183 68bd c31a 383c 8bf1 303d 9ef5 b63b
00000010: 1e60 27bd 5a8c 84bd 3c9c 243c ca8e e73b
00000020: d90b e63b 6928 c33b 95c8 e03b 9334 733d
00000030: c68c 283d 1adc 353d 8211 62bd be08 513d
00000040: c66e d6bc 0823 193c c15d 413c 1434 58bc
00000050: e811 a53b d88c 2a3c ec47 8f3b 47fc 83bc
00000060: 9d47 36bd 2021 073d a762 043d 8f12 383d
00000070: 6c98 a83d ad3d 403d 8b26 59bc 76a3 a63c
00000080: b5b8 b3bc e627 d6bc fafb 383d 91ca b03c
00000090: e3db 7e3c be12 f73b 64c6 093d 76f0 903c
000000a0: e0d7 453d 59a9 e43c 62e3 9a3d 793a 463d
000000b0: 4a94 bdba 819c e63c 6aea fe38 b6c7 2cbd
000000c0: d9c8 073d 534f 983d 7c44 143c 924c ef3c
000000d0: d80e 3f3c 0c12 cb3c 0fa1 563c bb8f 25bd
000000e0: 1d2d 043d 519d e73c c0ab 503c 8596 23bc
000000f0: da8f 3dbd 36e6 e93c fbc0 8d3c 848d 843d
00000100: 75ce a03c fece 27bd 059b 903c abbb 893b
00000110: 707a 46bc 7e20 b0bc f88a 04bc 50dd 36bc
00000120: 8483 83bd 3cb8 953a b38c 3c3a b3d5 d63c
00000130: 962b eb3c a46f 4bbc 1e91 4ebc 63f3 07bc
00000140: 241e b13a fcc3 c7bc dbb6 5fbc edf8 81bc
00000150: 40a9 dbba e656 8dbc c052 97bc 6de2 6cbd
00000160: de54 d73a b766 a5bd 097e 5d3d f02b 793b
00000170: 09b1 303d e37c 143d ebe2 6bbc 3236 be3c
00000180: fb63 943d 0d1e 9f3c 4409 2dbd 7e05 52bd
00000190: 6d5a f1bb cd8d 223c d13d a3bd 21e8 dcbd
000001a0: 188b b1bd a15f cf3c c76e 5ebd 616f 27bd
000001b0: 2f2e 75bd f712 ed3b 7588 18bd 01e4 78bd
000001c0: 2488 cb3c 2dca 0d3d 6cb5 083d 352b 253c
000001d0: 3872 443b f28a 0bbd fdab 70bc c073 38bd
000001e0: fd15 c6bb 4318 513c 4283 ecbc 7118 51bd
000001f0: 6af1 d63c 43e8 cf3b 4802 4e3d 9dda 82bd
00000200: 117f 91ba 0c2d d53c 463b 51bd 2d3b fabc
00000210: e934 783b ba0c e93c b4f4 3c3d bd1e 10bd
00000220: c1b2 19bd db1b bbbc 50eb 9db9 f334 193c
00000230: 4ba8 a8bd b328 25bc ba48 1b3c 6f81 9e3c
00000240: 5dd3 f73c b418 92bd d92f 8fbc 48fe 83bd
00000250: a62c 97bb 960c 4cbd 3f45 77bc c286 313b
00000260: 89ef b5bc c163 e73c 4fa6 123d aaac cbbd
00000270: e523 023d 51b6 c2ba 4521 4cbc 0585 f7bb
00000280: 99fb 93bb 2920 283d 4321 80bb 4748 5abd
00000290: 9402 5ebc dd21 87bd f38c 39bb a689 2a3d
000002a0: a856 4eb9 dd91 d4bc ef47 27bd 666d 1d3d
000002b0: 3a14 55bc 5d66 32bd ec12 90bd 0939 09bd
000002c0: 7a56 bcbc 4706 c5bb bd52 a9bc e04b a9bc
000002d0: cd2f 07bc 132e 0c3c 0d01 6e3d eecc c9bc
000002e0: f2e0 22bc 4613 a6bb 49e9 38bd 8ddc e2bc
000002f0: 0283 8a3c 457a 62bc b544 f0bc e98e 2fbd
00000300: a81b 1f3d 39e4 2dbd 4574 83bd 2037 22bc
00000310: d6c7 7d3c 0538 433c 64bc f23b 03b7 9ebc
00000320: bb2a 8bbd ec97 fbbc 8138 a63c d751 fcbc
00000330: 7277 773c e27a 583c a6bb 0dbd 696d 8bbc
00000340: 169f 843c 81c3 c4bc 8431 e83b 0fd0 243c
00000350: 9d60 723d 8612 f3ba 44a3 113d b236 1ebd
00000360: 937f 53bc e819 2f3d 1a73 c8bc 4b31 aebc
00000370: 73b9 ff39 022c 0dbd 9476 1a3d 7c21 e9bc
00000380: dcf9 a13c 93cc 413d a0d7 35bd acb6 a5bc
00000390: f772 143c 09ce b93d fe76 78bc e786 ea3c
000003a0: 9f74 823c 6592 523d 8052 533c a752 1cbd
000003b0: 0a94 f6bc e297 edbb 58ce e4bc 2700 31bb
000003c0: 1d9b 14bd c24a a43c 86d4 0e3d cf97 d1bb
000003d0: 73e3 62bc 3383 18bd d9d0 2c3d f1c9 d43b
000003e0: cd0f 17bd be2b 2fbc 0c0a ea3c b1ec 523d
000003f0: fd63 903c a8d0 703c 67dc 783d 219d 15bc
-0.056765918 0.011236849 0.043199103 0.005583479 -0.04086315 -0.064720824 0.010047015 0.0070665823
0.0070204553 0.005955745 0.0068598487 0.05937631 0.041149877 0.04439936 -0.055192478 0.051033728
-0.026175868 0.009346731 0.011802138 -0.01319601 0.005037535 0.010409556 0.0043725874 -0.016111506
-0.04450189 0.032990575 0.032320645 0.044939574 0.08232197 0.04693382 -0.013253818 0.020341616
-0.021938661 -0.026142072 0.04516218 0.021580966 0.015555355 0.007540076 0.033636466 0.017692786
0.048301578 0.027912783 0.07562901 0.048395608 -0.0014463749 0.028150799 0.00012155327 -0.042182647
0.033150528 0.07437005 0.009049531 0.029211316 0.011661254 0.024788879 0.013099923 -0.040420275
0.032269586 0.028273256 0.012736261 -0.009984617 -0.046279766 0.028552156 0.017303934 0.064723045
0.019629696 -0.040968888 0.017652044 0.00420328 -0.012114152 -0.021499868 -0.008089773 -0.011161163
-0.06421569 0.0011422704 0.00071925967 0.026224947 0.028707307 -0.012416754 -0.012607841 -0.008297774
0.0013513011 -0.024385445 -0.013654436 -0.015865767 -0.0016758814 -0.01725335 -0.018472075 -0.057833124
0.0016428491 -0.08076232 0.054075275 0.0038020574 0.043137584 0.036251914 -0.014397363 0.023219202
0.07245632 0.019423509 -0.042245165 -0.05127477 -0.007365516 0.009921503 -0.07970775 -0.107864626
-0.08669108 0.025314154 -0.054304864 -0.040877704 -0.059858497 0.007234927 -0.03723951 -0.060764316
0.02484519 0.034616638 0.033376142 0.010081102 0.0029975306 -0.034068055 -0.014689443 -0.045032263
-0.0060451017 0.012762132 -0.028871182 -0.0510487 0.026238162 0.0063448264 0.050295144 -0.063893534
-0.0011100491 0.026022457 -0.05108192 -0.030545795 0.0037873334 0.028448451 0.046131805 -0.035185564
-0.03752399 -0.022840431 -0.00030120695 0.009351003 -0.08235224 -0.010080504 0.009477789 0.019348828
0.030252153 -0.07133618 -0.01747887 -0.06444985 -0.004613477 -0.04981669 -0.015092193 0.0027088379
-0.022208946 0.028245809 0.035803135 -0.099450424 0.031772513 -0.001485536 -0.012459104 -0.007553699
-0.0045160768 0.041046295 -0.003910215 -0.053291585 -0.013550419 -0.06598256 -0.0028312772 0.041635178
-0.00019677973 -0.02594846 -0.040840086 0.03843441 -0.013005311 -0.043554652 -0.07034859 -0.03350166
-0.022990454 -0.006012711 -0.020669335 -0.020666063 -0.008251143 0.008555907 0.05810647 -0.02463385
-0.009941326 -0.0050682155 -0.045144353 -0.027693057 0.016908173 -0.013823097 -0.029329637 -0.0428609
0.038844734 -0.04245398 -0.06418661 -0.009900838 0.015489539 0.011915212 0.007407712 -0.019374376
-0.067952596 -0.03071209 0.020290615 -0.030800743 0.015104162 0.013212891 -0.034602784 -0.017019944
0.01618914 -0.024019005 0.007085981 0.010059371 0.05917417 -0.0018544949 0.035556093 -0.03862638
-0.012908834 0.042749316 -0.024468947 -0.02126374 0.0004877556 -0.034465797 0.03771074 -0.02845835
0.019772463 0.047314238 -0.04439509 -0.020228706 0.009060613 0.09072501 -0.015165089 0.02862878
0.01592475 0.051409144 0.0128980875 -0.03816476 -0.030099887 -0.007250772 -0.027930424 -0.0027008147
-0.03628074 0.020055179 0.034870647 -0.006396271 -0.013848173 -0.037234496 0.04219136 0.0064938
-0.036880303 -0.010691581 0.028569244 0.051495258 0.017625803 0.014698185 0.060757067 -0.009131701

conv2.bias f4 [16]
00000000: 550c a43b 6ac8 05bd 061c 7f3c a6ec 10bb
00000010: 2dc3 22bd 6642 043c 7a3d 0abd 6bdd 163d
00000020: 5bde 013d a9a9 3cbd d161 f33c b489 803c
00000030: dcb2 a83c d4c1 31bb c51e 4abc 9a98 f93c
0.005006353 -0.032661833 0.015570646 -0.002211371 -0.039736915 0.008072471 -0.033750035 0.036832254
0.031706195 -0.046060238 0.029709728 0.015690662 0.0205931 -0.0027123587 -0.012336438 0.030468274

fc1.weight f4 [100, 256]
00000000: c35f 4fbd 67b7 22bd 77b5 b8bd 7c03 22bd
00000010: 66aa edbc 387a 48bd becc 96bc 0764 d0bc
00000020: 1333 10bd e536 6f3c f7b9 48bd 7ba4 16bd
00000030: 5df2 f63c b43b ac3c fcb2 e3bb a0e1 60bd
00000040: 8162 6a3c e285 43bc 95d1 1cba 3279 acbc
00000050: 1e81 4bbd ca23 9dbb 2d30 78bd 92cc 50bd
00000060: 2358 84bd 4edc a5bd 5b22 d9bb e431 26bb
00000070: 18cb a2bc 1664 0dbc cbcd 903c 1904 57bc
00000080: 7463 2a3c 37f6 843d 5fdb 8f3d 1063 1ebd
00000090: 4760 513d 949e 8c3c e5a2 e33c 28e4 4c3d
000000a0: d638 27bd 0efa 4bbd 2319 22bd 6464 9dbc
000000b0: c564 67bb c5ce fd3c eedd b0bc b427 e9bb
000000c0: a024 39bd c86d e63c 7212 80bc 6325 be3d
000000d0: 121b 8abc 92b3 803c b8c8 d4ba 4395 883c
000000e0: 61f6 a73d 1d1f e9bb 033b 173d bedf 073b
000000f0: 5b2e 803c f0a4 03bd 6bab 183c 9a7c 4c3d
00000100: 01f6 b73b 9bb9 fcbb 3999 813c 7360 9c3a
00000110: 8a61 0dbb 77c4 173d 27ae 58bd eaac 0f3d
00000120: 4f96 043d c598 7b3c 91e8 103c 23e5 c43c
00000130: f90e 263d 982d bfba c696 233b 0145 3b3d
00000140: fd54 60bd ef53 5d3d e259 fb3b e685 59bd
00000150: 45c3 083d 90dc 4d3d ef0b 403c 72fc 8fbc
00000160: cef5 a1bb 7c97 783d 31bf 2dbd 2b13 97bc
00000170: a70f dfbc 7187 3b3d 159f 673d 0f93 c9ba
00000180: 19b4 073d 2a04 18bd 0552 9cbd 701a 18bd
00000190: ccd9 503c 7bf7 633c aa64 6cbd 6457 bcbd
000001a0: 8bac 3cbb 342c 773d 3250 24bc 9a4d 4bbc
000001b0: d455 323d 8f79 2dbd 6758 8ebc ba27 a13c
000001c0: 9883 003d 25f9 04bd 50b4 5b3c bfd5 4f3d
000001d0: 1517 bd3c 98c2 48bd 5f8c 673c 7c50 3ebc
000001e0: d8c3 1a3d e0c1 fb3b d206 58bd 7849 49bc
000001f0: a5e8 053d 1795 f23c c3e7 39bd 5aea 7fbd
00000200: d285 7bbd 0e26 38bd 9802 933d 2ccd 3f3d
00000210: af55 2d3d 04b5 0bbd 90d8 93bb 186b 9ebb
00000220: cf0d 72bc 47d3 d03c 1130 1b3a bf38 083c
00000230: 8ab0 2e3c 9ed1 2b3d 7126 78bb 3ea9 e33c
00000240: 23ad 0dbd d0e7 e13c 8067 273d 0857 e7bc
00000250: 92ff 80bd e2b2 81bd e4b0 2a3c e167 28bd
00000260: e948 5a3c fa9b afbd 5cef 4cbd 1d91 ed3c
00000270: 3e5a 213c e1f5 0d3d acea 0d3b 2d43 233d
00000280: 3fd9 7abc d3a3 6c3c f404 e63c 0b6d 903c
00000290: d165 c93c 15ff 41bc 74da 273d 32d2 9fbd
000002a0: 7b75 c4bc b671 733d 7d78 48bd 1170 16bd
000002b0: 1436 bbbc ba46 25bd 029b fd3b f366 e83c
000002c0: 0a63 1ebd 15cd c13b 49d8 b1bd f576 bdbd
000002d0: 35e8 76bc 106b f03c 667c 383d c3d8 003d
000002e0: 9d98 80bc 1180 fe3b 11fe a9bc 410c 033d
000002f0: a28c 56bc 1363 ed3c 5e77 75bc 2cb6 af3c
00000300: 9e49 91bc 4618 f83c 7835 c93c 4186 2abc
00000310: 8f21 2ebd c4b8 10bd 70fd 2dbd 8253 1ebd
00000320: f166 f83c af94 8e3b bad6 85bd d366 4f3d
00000330: 1580 99bc 603c a53c 7669 023d 475a 6a3d
00000340: 92c4 233d 4f88 52bd f759 2abc be1f 753b
00000350: 9b07 d0bc 44f5 103d 67dd af3d 710c bd3c
00000360: f97f 86bc 63e4 323d 918b b8bc 2edd 9c3c
00000370: c54f 6dbd bc20 603a 0e41 463d fcb1 633d
00000380: 307a baba 50d2 eabc eb2c 353d cbc3 ddbb
00000390: 5c34 44bc 030c 56bd 2c0f ea3c 29d3 2d3d
000003a0: 366c 143d cb5b 8cbc a8e1 783d e6e6 0d3d
000003b0: 1ca7 143c 3585 8fbd 464a ebbb 0a36 923d
000003c0: 0299 543d 7af0 4b3b 50b6 723d 7f4d 953d
000003d0: 2f00 813c 7339 95bd 6641 fabc 1610 3c3d
000003e0: a362 053d 22ec 7fbd 2dc6 7cbc 060d 493d
000003f0: c800 123d bcc8 023d 258b 7dbc 39cb afbc
-0.050628435 -0.039725687 -0.09018987 -0.039554104 -0.029011916 -0.048944682 -0.018408176 -0.025438322
-0.03520496 0.01460049 -0.049005475 -0.036777955 0.030144865 0.021024562 -0.006948827 -0.054902673
0.014305712 -0.011933776 -0.0005982158 -0.021053884 -0.049683683 -0.004795526 -0.06059282 -0.050976343
-0.06462123 -0.080986604 -0.00662641 -0.0025359327 -0.019872233 -0.008629819 0.017676255 -0.013123536
0.010399688 0.06492274 0.070242636 -0.038668692 0.051117208 0.01716546 0.027787635 0.050022274
-0.040825687 -0.049799018 -0.039574753 -0.019212909 -0.0035307866 0.030982384 -0.0215902 -0.0071153287
-0.045200944 0.02812852 -0.015633795 0.09284475 -0.016858611 0.015710626 -0.0016234135 0.016672736
0.0820129 -0.0071143047 0.036921512 0.0020732726 0.015647104 -0.03213972 0.009318213 0.049923517
0.0056140427 -0.0077125556 0.015820133 0.00119306 -0.002157303 0.037052598 -0.05290046 0.035077013
0.032369908 0.015356247 0.008844511 0.024035042 0.040541623 -0.0014585732 0.0024961694 0.045720104
-0.05476855 0.054035123 0.007670627 -0.05310621 0.03338935 0.050259173 0.011721595 -0.01757643
-0.0049426323 0.06069134 -0.042418662 -0.018441757 -0.027229143 0.045783464 0.056548197 -0.001537891
0.03313074 -0.037113346 -0.076328315 -0.037134588 0.012747239 0.013913984 -0.05771319 -0.09196356
-0.0028789367 0.06034489 -0.010028886 -0.012408638 0.043538883 -0.042352255 -0.017376138 0.019672263
0.031375498 -0.032464165 0.013409689 0.050740954 0.023082295 -0.049013704 0.014132588 -0.011615869
0.037784427 0.007683024 -0.05274088 -0.012285583 0.03269257 0.029612107 -0.04538704 -0.062479354
-0.061406918 -0.044958167 0.07178229 0.046826527 0.042318042 -0.034108177 -0.0045119002 -0.004834544
-0.0147738 0.02549137 0.0005919943 0.008314311 0.010662207 0.041947953 -0.003786471 0.027790662
-0.034588944 0.027576357 0.04087019 -0.028239742 -0.06298746 -0.06332947 0.010418151 -0.04111469
0.013323047 -0.08574672 -0.05003296 0.02899986 0.009848176 0.034658317 0.0021654768 0.039858986
-0.015310585 0.014443356 0.028078534 0.01763012 0.024584683 -0.011840601 0.040979818 -0.078037634
-0.0239818 0.059434615 -0.04894303 -0.03672797 -0.022852935 -0.040350653 0.0077394256 0.028369403
-0.03866867 0.0059143403 -0.08683831 -0.09251205 -0.015070011 0.029347926 0.04504051 0.03145672
-0.015697772 0.0077667315 -0.020751031 0.031994108 -0.013095053 0.028977906 -0.014982073 0.021449171
-0.017735299 0.030285012 0.024561629 -0.010407985 -0.042512473 -0.035332456 -0.042478025 -0.038653858
0.030322524 0.0043512206 -0.065350965 0.05063517 -0.018737832 0.02017039 0.031838857 0.057215
0.039982386 -0.051399525 -0.010397426 0.0037402953 -0.025394252 0.035390154 0.08587151 0.023077222
-0.016418444 0.043674838 -0.022527488 0.019148435 -0.057937402 0.00085497997 0.048401885 0.05558966
-0.0014227089 -0.028664738 0.04423229 -0.006767725 -0.011975374 -0.05225755 0.028571688 0.042437706
0.03623601 -0.017133614 0.060762078 0.03464403 0.009073045 -0.07007829 -0.007180485 0.071392134
0.051903732 0.0031118677 0.059255898 0.07290172 0.015747158 -0.07286348 -0.030548763 0.04591378
0.03256477 -0.062481053 -0.015428108 0.049084686 0.035645276 0.031929716 -0.015475069 -0.021459209

fc1.bias f4 [100]
00000000: 0100 b73c 5cbf 7a3d 6022 0cbd cf0b 3dbd
00000010: 6d00 543d 8f53 66bd 7dc4 c53c 72b6 f33c
00000020: f5cd d0bc 5831 883c 5ebe 79bd e675 3f3c
00000030: 3631 b1bc d0c3 97bb f3c3 9b3c d2ac 6c3c
00000040: dcab c83c 3833 5fbd 9f09 5c3d 2de1 c23b
00000050: d75c 4b3d 3ab6 643c c64d 2b3c 6972 5cbd
00000060: f46c 42bc b2ed 383d 06a9 06bd 7772 723d
00000070: 1115 5c3d 3c2e 2d3d 2c1e c33a 24a1 26bd
00000080: b8b0 13bc 12e4 763d cb61 6bbd 93a9 683d
00000090: 030f a3bc afd5 13bd 9b17 59bd d566 67bd
000000a0: b733 933c f58c 063d bf77 943b a1dc 43bd
000000b0: 1ddf 20bd d1d6 973b 285d 0b3d 2f74 12bc
000000c0: 64c8 283d 7f6f 483d 8c3d 263d 1793 5ebd
000000d0: 7912 8cbc bb83 393d de22 393c 1fcc 103c
000000e0: e518 27bd d507 6b3d 2ca0 67bd 0115 3f3d
000000f0: 2687 bcbc 6fd7 12bd f1c0 443d a0b9 9c3c
00000100: 8e97 2c3d f388 e73c 7b1d 16bd 6d35 d0bc
00000110: 5325 473d f07b 2ebd 1b90 563d 99e7 d23c
00000120: ecb4 223d f1b1 48bd 9673 383d efa7 913c
00000130: 2625 783d 3a13 28bd d783 5b3d d09f 353d
00000140: 127f eb3c 49db 673b dc1d 323d 17a3 09bd
00000150: 4465 593c f82b 2f3d 5268 f3bc c0af 8f3b
00000160: 6842 7e3d 8522 b03c 1bca 6a3d 7bc2 6fbd
00000170: ccab 49bb 366e e13b 44ad 88bc b513 43bd
00000180: 3f36 8dbc bdba 2ebc ab5e 9c3a 02ce 6e3d
0.022338869 0.06121765 -0.03421247 -0.04615384 0.05175822 -0.05623203 0.024141544 0.029750083
-0.025488833 0.016625091 -0.060972564 0.011685824 -0.02162991 -0.004631497 0.019014334 0.0144455
0.024496011 -0.054492205 0.053720113 0.005947253 0.049649086 0.013959462 0.010455554 -0.053820048
-0.011866797 0.04514856 -0.032876037 0.059191193 0.053731028 0.04228042 0.0014886311 -0.04068102
-0.009014301 0.0602761 -0.05746631 0.056802344 -0.01990462 -0.036092456 -0.053001028 -0.056494553
0.017968995 0.03284927 0.0045308764 -0.04781783 -0.039275277 0.0046337624 0.034024388 -0.008938833
0.041206732 0.048934456 0.04058604 -0.054339495 -0.017098652 0.045291644 0.011299817 0.008837729
-0.040795226 0.057380516 -0.056549236 0.04665089 -0.023013663 -0.035849985 0.048035566 0.019131482
0.04213672 0.028263545 -0.03664921 -0.0254161 0.04861958 -0.042598665 0.052383523 0.0257452
0.03972332 -0.048997823 0.045032106 0.017780272 0.060582303 -0.04103396 0.05359253 0.044341862
0.028747115 0.0035378507 0.043485507 -0.0336028 0.0132687725 0.04276654 -0.02971283 0.0043849647
0.06207505 0.021500835 0.05732165 -0.05853508 -0.0030772565 0.0068795932 -0.016684182 -0.047626216
-0.01723778 -0.010664639 0.0011930069 0.058301933

fc2.weight f4 [10, 100]
00000000: 42c9 0b3e 1b63 063e 9119 a4bc 3b2c 1fbe
00000010: 93fe 00bd 28d0 36be 5976 02be 2079 a83d
00000020: 2a2a 1fbe 2194 b63e 056c 02be 88cb d3bc
00000030: c37c 3dbd f186 39bd d693 38bd a22f 8a3e
00000040: 7cf6 16be e369 c3bd 1d81 e83e 2e41 2a3e
00000050: cc52 59bc c6bf 2ebe 70b2 30be d558 2cbe
00000060: 5796 cabd f6ab 56bd d6c8 db3c 318b 823d
00000070: 66df 11bd cfd9 4b3e 2463 45be 2b7d 80bc
00000080: b3a3 693c ede6 bebd 3813 93bd 517f 89bd
00000090: 93b6 163e 5eec a3bd 1251 27bd 38f4 50bd
000000a0: 1ae7 f9bc 9a85 57bd 7a7b cbbd ddfb 633d
000000b0: bb1f 17bc c54c 5dbe 15bf 3cbd e124 38bd
000000c0: 1162 14bd a693 4abe 12b6 81bc a57e eb3e
000000d0: c498 7abd d632 7e3c b514 033d 0efd 463d
000000e0: a293 433e c974 0dbe 7f33 3cbd 0e66 c1bd
000000f0: b477 45be 58b0 12be 5c2c 913e fbce 10bd
00000100: a423 20be f156 1bbe bab5 a0bd 47a2 07be
00000110: 7855 00be 5e34 3bbd f703 a33d 8ea3 92bb
00000120: 12c2 40be 6e15 9ebd 9346 dcbd f50c 3bbd
00000130: 6e03 a1bd 4dc7 8d3e bb91 43be 8fb7 28bc
00000140: 165f 46be ac1e f03d 54bc a33e fdcf 17be
00000150: 3868 c9bc 0dee f0bd 508d de3d 3325 b03e
00000160: 3724 183e 5cc4 e0bc 2748 51bd c937 ebbd
00000170: b389 1e3e ef38 bc3d 9dbd 433e fbfd 0d3d
00000180: 481e 2abe 2cab 51bd 94aa c63e 0818 12be
00000190: 1326 6ebd a842 dfbd ade7 473d 69f3 36be
000001a0: 319c 673d 4760 753c e972 f7bd 8e5d 6fbd
000001b0: 4e49 e33e 6ae0 263d 33f5 20be 7d13 cbbd
000001c0: 2687 193e c7df 943d 0f63 9a3e 7df1 0bbe
000001d0: 771e 903d 8f11 873e f681 04bd c44b ccbd
000001e0: bdf9 edbc 240e bbbd df45 a1bd 277b 40be
000001f0: 1ebe ac3e df64 853e ae1c 03be 452d 71bd
00000200: 96eb 31bd 111d 19be c8d6 17bd 935e fdbd
00000210: 8ec3 32bd e099 c83e 7e17 023e 94a4 abbd
00000220: 5404 f33c 29d6 01be 77e9 1e3d 7e49 e1bc
00000230: 4940 6dbd 4fe7 25be d750 45bd b74d edbd
00000240: fb03 b03d 0bb2 d1bd f57d 94bd e18b b5bd
00000250: 01a7 a23e 797c a43d a7dd fdbd f61f cebb
00000260: fab8 553e 0635 fabd 13f0 2dbe a7f3 c63d
00000270: fe48 86bc bdc4 8abc 19a1 01be 6f2e 29be
00000280: 01a6 9cbd 88c3 0dbe d628 2cbd 1acc 23be
00000290: 3fa2 06be 559b e83e fbc7 84bd eca6 853c
000002a0: ad01 9c3e 29da 01be 6d88 a1bc 1e00 943e
000002b0: 1994 ad3d c67c 10be 92ff 1fbe b773 c13c
000002c0: e79d 39be c486 e6bd b20e ddbc 37c7 10be
000002d0: f1d5 b3bd 0712 55be d99d 453d 5b38 25be
000002e0: b893 c8bd c665 893d 795b dfbd 740a 37be
000002f0: 50d8 d9bd 53de b2bc 2de5 37be 9cc6 563c
00000300: 9fef 28be a1d7 9dbd 3c95 ed3c 0393 863e
00000310: 1ec3 823e a972 c2bd 4ba6 e4bd e641 9c3e
00000320: b5c7 22bb 39aa 483e c21b f53e ad5d 6dbc
00000330: bb1f d23d c08d d1bd 4003 443d 6aa5 0d3e
00000340: 34ca b4ba fb8f e5bc a364 1bbd a721 10be
00000350: 610f 7c3d 8b1e 4bbe 5a88 01be 79e7 933d
00000360: aab8 053f 70f2 15be fb6a 403c be3e 2bbe
00000370: 1e5b cdbc b1fe 2b3d b8bf 09be 85f2 cd3e
00000380: 86e5 f53d 7cd3 fd3d 1654 d4bc df1b 6fbd
00000390: 2dce 863e 5d2f f0bd f57b eabd 034c 9b3d
000003a0: 6449 423c 4975 14be e17e 2f3e a7c3 1fbe
000003b0: 49b8 a8bd 796d 2abe 7b1e 3fbd 2395 cebd
000003c0: e88d 1cbd cce0 613e 69df 673e 460f 5ebc
000003d0: 5498 a33e 0c81 ffbd bab9 8dbd 79c3 ac3d
000003e0: 7f4b 18be 372b 87bd a67e 873e 7029 9abd
000003f0: 7ea5 1fbe 0450 80bc dda5 cdbd 8895 b83d
0.13650993 0.13123743 -0.020031722 -0.15544216 -0.03149278 -0.17852843 -0.12740459 0.08226228
-0.15543428 0.35659888 -0.12736519 -0.025853887 -0.04626156 -0.045294706 -0.045062862 0.26989466
-0.14742464 -0.09541681 0.45411006 0.16626427 -0.013264369 -0.17065343 -0.17255569 -0.16830762
-0.09891956 -0.05241009 0.026829164 0.06374205 -0.03561344 0.19907306 -0.192761 -0.015684685
0.01426022 -0.09321389 -0.071814 -0.06713737 0.14718084 -0.08004068 -0.0408488 -0.051014155
-0.030505706 -0.052617647 -0.09935661 0.055660117 -0.009223874 -0.21611317 -0.046080668 -0.044957045
-0.036226336 -0.19782886 -0.015833888 0.4599506 -0.061180845 0.01551505 0.03200217 0.048581176
0.19099286 -0.13814081 -0.045947548 -0.094432935 -0.19283944 -0.14325082 0.28354156 -0.035353642
-0.15638596 -0.15169884 -0.078471616 -0.13245498 -0.12532604 -0.045704238 0.079597406 -0.0044750636
-0.18824032 -0.07718931 -0.107556485 -0.045666654 -0.07861982 0.27691117 -0.1909856 -0.01029767
-0.1937221 0.117246 0.3197962 -0.14825435 -0.024585828 -0.117641546 0.10866797 0.3440338
0.14857565 -0.027437381 -0.0510942 -0.114852495 0.15482216 0.09190547 0.191153 0.034666043
-0.16613114 -0.051188633 0.38802016 -0.1426698 -0.05814178 -0.109013855 0.048804928 -0.17866291
0.05654544 0.014976568 -0.12082464 -0.05843883 0.44391865 0.04074136 -0.15718536 -0.099158265
0.14992961 0.07269245 0.301537 -0.13666339 0.07037061 0.26380584 -0.032350503 -0.09975389
-0.029049749 -0.091335565 -0.07874655 -0.18796979 0.33738798 0.2605352 -0.12803909 -0.058881063
-0.043437563 -0.14952494 -0.037070066 -0.12371554 -0.043643527 0.39179897 0.12704274 -0.08381
0.02966515 -0.12679352 0.03879687 -0.027500864 -0.057922635 -0.16201518 -0.048172798 -0.115870886
0.08594509 -0.10239037 -0.07250587 -0.088645704 0.3176804 0.08031554 -0.123957925 -0.006290431
0.20871344 -0.12217145 -0.16986112 0.09714442 -0.016392227 -0.016939515 -0.1265911 -0.1652162
-0.0764885 -0.1384412 -0.04203113 -0.15995827 -0.1314783 0.4543101 -0.06483456 0.016314946
0.3047003 -0.12680878 -0.019718373 0.2890634 0.08475513 -0.14110097 -0.15624836 0.023614747
-0.18126641 -0.11256173 -0.026984546 -0.14138494 -0.087810405 -0.20807658 0.04824624 -0.16134779
-0.097938 0.06708865 -0.10906119 -0.17875081 -0.106369615 -0.021834528 -0.17958517 0.013108876
-0.16497658 -0.077071436 0.029001825 0.26284036 0.25539488 -0.09494526 -0.1116453 0.30519027
-0.0024838273 0.19596185 0.4787274 -0.014487666 0.10259958 -0.10232115 0.047854662 0.13832632
-0.0013793171 -0.028022757 -0.03793777 -0.14075337 0.061538104 -0.1983587 -0.1264967 0.07221884
0.522349 -0.14643264 0.011744256 -0.16723153 -0.025067862 0.04199094 -0.13452041 0.4022409
0.12006669 0.12393853 -0.025919002 -0.05837619 0.26329175 -0.11727784 -0.11449424 0.075828575
0.011858318 -0.14497866 0.17138244 -0.15601979 -0.082382746 -0.16643323 -0.046659928 -0.10087039
-0.03822127 0.2205841 0.22643818 -0.013553446 0.31952155 -0.124757856 -0.0692019 0.08435721
-0.1487255 -0.066000395 0.26463813 -0.07527435 -0.15590474 -0.015663154 -0.100414015 0.09012896

fc2.bias f4 [10]
00000000: 83f4 bf3c 741a 97bc 3d43 0cbc 4d54 a83d
00000010: 39e9 763d 8155 ae3d 0dc8 1abe 1b0f 8ebd
00000020: 1fc2 60bc d73c 84bd
0.023432022 -0.018445231 -0.008560953 0.08219204 0.060281012 0.08512402 -0.15115376 -0.06936475
-0.013718157 -0.06456917

batchnorm1.weight f4 [16]
00000000: a358 7d3f 7be6 7f3f 92f7 633f cabd 8a3f
00000010: 9d34 853f c537 543f ba6a 793f aecb 863f
00000020: ecb9 7c3f 8130 7e3f dbd3 863f d169 7d3f
00000030: 6b0d 833f b752 823f 6cc8 823f 4c9e 813f
0.98963374 0.9996106 0.8904964 1.0839169 1.0406681 0.828976 0.97428477 1.0530908
0.98721194 0.9929276 1.0533403 0.9898959 1.023847 1.0181493 1.0217414 1.0126433

batchnorm1.bias f4 [16]
00000000: 42fb a8bc 26d5 9ebd 4544 513c 5600 82bd
00000010: 4af5 313b 85ea 8abd 64f1 f6bc 545d 28bd
00000020: 0ac6 0bbd d243 a8bd 78f9 1cbd 204e 94bc
00000030: 32ac 4cbc 846a 02bc f87c 30bd fb9a c9bc
-0.020627622 -0.077554986 0.012772624 -0.0634772 0.002715426 -0.06783012 -0.0301444 -0.04110463
-0.03412441 -0.08216061 -0.03832385 -0.01810366 -0.012492226 -0.007959966 -0.04308793 -0.024610033

batchnorm1.running_mean f4 [16]
00000000: 7b96 c3bb e56b 56be 4980 1abe 0430 59bd
00000010: 0a1a 21bd 32b1 31bd 7a3b 063e 2fc1 8d3d
00000020: eb64 d73c 09e4 d03d 9248 1a3d 78b8 583d
00000030: b088 08be d13a 2b3e 8e96 553d a163 3fbe
-0.0059688664 -0.20939596 -0.15088 -0.053024307 -0.039331473 -0.043381877 0.13108626 0.069216125
0.026293239 0.10199744 0.037666865 0.052910298 -0.13333392 0.16721655 0.052145533 -0.18690349

batchnorm1.running_var f4 [16]
00000000: aebf c43e 8f0d 2e3e 10b8 023f 0010 f23e
00000010: 9d8e 463f 7a05 e13e ee31 a13e 17c4 8d3f
00000020: db42 1d3f 85fe 323e 92bc 413f acf0 d63e
00000030: c0b5 1d3f eff2 cf3e efed 2d3f ae8a 4f3f
0.3842749 0.1699736 0.5106211 0.47277832 0.7756136 0.4394949 0.31483406 1.1075467
0.6143014 0.17479904 0.7567836 0.41980493 0.61605453 0.4061503 0.6794118 0.81070983

batchnorm2.weight f4 [16]
00000000: 9624 783f 9160 853f 3785 783f 7c88 733f
00000010: d54a 803f dba1 7c3f 5bdc 7c3f 8352 7e3f
00000020: 1743 843f 481c 7a3f dc99 853f 1a85 813f
00000030: 8660 853f 3407 803f 4468 7c3f e377 7d3f
0.96930826 1.0420095 0.9707827 0.95130134 1.0022837 0.9868447 0.98773736 0.9934465
1.0332974 0.97699404 1.0437579 1.0118744 1.0420082 1.0002198 0.98596597 0.9901106

batchnorm2.bias f4 [16]
00000000: 3852 59bc 3d2d 33bc 518a 00bd 5d02 0ebd
00000010: 2267 5ebd 2003 47bd 2288 c2bc cdd6 8bbc
00000020: fe24 76bd 2529 f3bc 08b9 46bc b231 2cbd
00000030: d498 1dbd 310a acbc f36b 89bc 216a a13c
-0.013264231 -0.010936079 -0.03138191 -0.034670223 -0.054297574 -0.048586965 -0.023746554 -0.017070198
-0.060093872 -0.029682705 -0.012129076 -0.04203958 -0.038475826 -0.021000953 -0.016775107 0.019703927

batchnorm2.running_mean f4 [16]
00000000: c1d5 17bf d722 1ebf 6509 c33e d654 01bf
00000010: 2dba a2bf a0dc aa3d 684f f3be 9bc1 97be
00000020: 4084 21be bdbb 0dbf 2f28 06bf 4a7e f4bd
00000030: 587b 0cbf 3906 e03e dad6 60be 67bc 0dbf
-0.5931054 -0.6177191 0.38093105 -0.50520074 -1.2713066 0.08342862 -0.4752152 -0.29639897
-0.15773106 -0.5536459 -0.52405065 -0.1193815 -0.5487571 0.43754748 -0.2195696 -0.55365604

batchnorm2.running_var f4 [16]
00000000: 53f0 313e 52aa 303e b9dd 293e 0f3e 183e
00000010: 2a0f 163e b740 453e f2e6 2f3e 0dc9 253e
00000020: 71bc 093e 345a 403e 6ef2 2a3e 020c 573e
00000030: 3e14 743e 70b4 203e 65f4 113e c5b3 303e
0.17376833 0.17252472 0.16588487 0.14867423 0.14654222 0.19262968 0.17177942 0.16189976
0.13450791 0.1878441 0.16694042 0.21000674 0.23835847 0.15693831 0.14253385 0.17256077

batchnorm3.weight f4 [100]
00000000: c706 8f3f 9b1d 903f b9f6 8d3f 2009 953f
00000010: b5d6 883f 1acc 853f a1e3 8f3f fce7 853f
00000020: 2475 903f 90d0 893f 984e 8a3f 5f99 893f
00000030: dc4a 853f a3a1 8d3f feff 873f d8b0 8d3f
00000040: 0f33 923f ff2a 923f bfd7 8c3f 6354 8d3f
00000050: 5704 923f 9104 883f 2871 893f 620c 8f3f
00000060: b5ec 8a3f b72e 893f 6d6d 863f 9382 833f
00000070: 16c5 853f d08d 8a3f 3cca 8b3f d835 8d3f
00000080: d482 8c3f 6a48 8d3f c363 873f e791 893f
00000090: c421 833f e610 9a3f bdde 883f ebc3 8b3f
000000a0: fd84 8c3f 1f57 8a3f 1a55 8d3f 4ab6 8a3f
000000b0: e9c1 873f 5787 933f 61f6 913f 51a3 913f
000000c0: 4231 893f 1aeb 863f f922 8b3f a173 903f
000000d0: 6aa7 8f3f 1f95 8b3f addd 8d3f 49d3 893f
000000e0: 16b5 883f 61c6 903f c2d9 873f f86f 8b3f
000000f0: 9045 933f a845 8f3f bc59 8b3f 22b8 8b3f
00000100: f10c 953f 80cd 8c3f a519 923f da91 863f
00000110: 0191 8e3f 348e 863f a5fa 893f b05a 8c3f
00000120: 86e7 903f 2dba 8f3f a78f 8e3f 6b23 8b3f
00000130: 019d 893f 9ed8 8a3f 2cc1 8a3f 3db5 8a3f
00000140: aa08 893f 3553 883f 552c 8a3f e076 8f3f
00000150: ba84 863f 7f52 893f e353 873f 255b 8e3f
00000160: 0300 873f b74a 903f 976e 873f 719e 8a3f
00000170: 7d44 873f 16d6 8b3f 473a 8c3f 8165 863f
00000180: 4041 8c3f b7ef 8f3f f6b4 893f 3d27 8c3f
1.1173943 1.1259035 1.1090919 1.164341 1.0690523 1.0452912 1.1241342 1.0461421
1.1285748 1.0766773 1.0805235 1.074993 1.041347 1.1064953 1.0624998 1.1069593
1.1421832 1.1419371 1.100334 1.1041378 1.1407574 1.0626394 1.0737658 1.1175654
1.0853487 1.0717381 1.0502144 1.0274223 1.0450771 1.0824528 1.0921092 1.1032057
1.0977426 1.1037724 1.057732 1.0747651 1.024468 1.2036407 1.0692974 1.0919164
1.0978085 1.0807837 1.1041596 1.083688 1.0606052 1.1525677 1.1403314 1.1377965
1.0718157 1.0540497 1.0870048 1.1285287 1.1222966 1.0904883 1.1083275 1.0767604
1.0680263 1.131054 1.061333 1.0893545 1.1505604 1.1193132 1.088676 1.0915568
1.1644574 1.1000214 1.1414076 1.051326 1.1138002 1.0512147 1.0779616 1.0965176
1.1320655 1.1228691 1.1137589 1.0870184 1.0751039 1.0847356 1.0840201 1.083656
1.0705769 1.0650393 1.0794779 1.1208153 1.0509255 1.0728301 1.0572475 1.1121565
1.0546879 1.1272801 1.0580624 1.0829602 1.0567776 1.0924709 1.0955285 1.0499727
1.0957413 1.124503 1.075835 1.0949475

batchnorm3.bias f4 [100]
00000000: 6037 413d ed52 b23d 7bc6 1f3d e744 af3d
00000010: 3e4e 223d d43b 173d cd5f b63d 9ccc ee3c
00000020: db93 443d c0d6 de3c 6658 2a3d f573 683d
00000030: 8699 dd3c 5dab 383d 18b4 023d 2fec a23d
00000040: 8ef7 1b3d cecd c43d 0c14 003d 08cb 923d
00000050: f470 963d a4c4 c93c 6e5e 753d 1b2b 803d
00000060: dc9d 3d3d f5eb 4e3d 5b9e a93c 80f8 a43c
00000070: 5d8f e83c 8e67 2a3d 0efe 5b3d b89c 923d
00000080: 8229 533d 13fd 393d 5d43 553d b30a 113d
00000090: 06c6 2d3c 1bef b73d ab21 163d 8210 443d
000000a0: 5195 713d 58f8 2a3d 7295 863d fba5 093d
000000b0: 7363 1e3d 9f60 a63d 98fe 9e3d 29a8 ab3d
000000c0: 7a9b d63c 946f 0a3d 3ab8 423d f2e3 3f3d
000000d0: 5c5b bd3d b0c4 df3c 53e7 4e3d 534f 1a3d
000000e0: 77a4 7a3d 875c a13d 6f86 ce3c 4df6 463d
000000f0: 64df ae3d ace9 993d 7281 553d 7662 753d
00000100: 530a c83d a25b 223d 6554 ce3d ba63 2f3d
00000110: 3f71 963d ddec 023d d6e4 043d 687f 403d
00000120: 3049 b23d 57b5 d73d 6702 393d 6591 873d
00000130: 4329 683d dabb 8a3d 6d13 5e3d 71da 693d
00000140: 3519 023d 3d2a 4e3d 5e3b 263d 1c23 6a3d
00000150: c66f 313d 4ec6 823d 38b3 003d 5f37 483d
00000160: 5172 7d3d 29eb 023d 1134 153d 93b4 293d
00000170: 89ed 023d 6824 fd3c f34e 773d e688 dc3c
00000180: 95db 5d3d c89b 463d 5f19 903c 0868 443d
0.04717195 0.08707223 0.039007645 0.08558064 0.0396254 0.03692229 0.08904991 0.0291503
0.04799257 0.02720201 0.04158821 0.05675121 0.027050745 0.0450853 0.031910032 0.07955205
0.038077883 0.09609567 0.03126912 0.071676314 0.07345763 0.024629898 0.05990451 0.06258222
0.046293125 0.050517995 0.020705393 0.020138025 0.028388673 0.041602664 0.053709082 0.07158798
0.051553257 0.045407366 0.052066196 0.035410594 0.0106062945 0.089811526 0.036653202 0.047867306
0.05898029 0.041740745 0.06571473 0.033605557 0.03866906 0.08123898 0.07763404 0.083816834
0.026197184 0.033797815 0.047538973 0.046848245 0.09245941 0.027315468 0.050513577 0.037673306
0.061192002 0.07878976 0.025210587 0.048574734 0.08538702 0.075152725 0.0521254 0.059908353
0.09767594 0.03963817 0.10074691 0.042819716 0.07345819 0.03196417 0.032444797 0.046996504
0.08705366 0.10532635 0.045168307 0.06619529 0.056679975 0.06774111 0.054217745 0.057093088
0.03176232 0.05033325 0.04058396 0.05716239 0.043319486 0.0638548 0.031420916 0.04888093
0.0618766 0.031962547 0.036426608 0.041431975 0.031964812 0.030901149 0.060378026 0.026920747
0.054164488 0.04848841 0.017590223 0.047950774

batchnorm3.running_mean f4 [100]
00000000: 7658 4fbe 46ea 6c3e a229 bf3e 5d43 bdbe
00000010: 1359 723e ff26 703e de0f 8a3e e4e8 ad3e
00000020: 312c d5be a433 753d cd9c 19bf 0814 373d
00000030: 61f7 09be 5cb1 3fbf 088a 73bf a44c eb3e
00000040: 7da9 143f 2ddf 22bf c404 bd3e bb95 31be
00000050: 9faa 343d 6ff1 a8bd a056 9ebe c16d 5f3e
00000060: cd3f ac3d 974f 1bbd ae06 cb3e 9466 ae3d
00000070: 1005 3e3f 80ea 453e 559d 113f cf6e 70be
00000080: e48c 5cbe a277 45bf 4093 c7bd b7a9 4bbe
00000090: 8659 15bf 2432 b13c 1958 79be 27f0 0fbf
000000a0: 4016 8d3e bab9 a43e 689c 11bd 4444 9bbe
000000b0: d628 ba3e b87b 75bd 8092 bcbd c874 893a
000000c0: 200c 06bf 4440 ddbd ada3 a53d 8253 92be
000000d0: 555c 36bf 8bd6 cc3e 3970 2f3e 8571 63be
000000e0: ff39 223d d517 8e3d 5471 213e 0a35 543e
000000f0: bff8 e23e 1645 cebe 8b9a e03e 7aa3 0a3f
00000100: 7e5f a73e babc 56bf 4ada 7d3d 6de6 d0bd
00000110: 788b 56bd fe19 20be 4737 273f 2b4f c6be
00000120: c32c bc3e da92 2c3e 0c33 dcbe 2708 05be
00000130: 94ba 803a fc1a 013d df43 733d 09d5 033d
00000140: 2d01 93bc a710 9e3e cef2 86be 1c70 febd
00000150: 12c7 a63c f0e1 ca3e 1a04 2cbe 0d58 1ebe
00000160: db37 f83e d135 1cbc abc1 203e 06d8 173e
00000170: f357 213d 893a 11bf 28ed d63c 3de7 a6be
00000180: ea41 1cbf 2ec8 3c3e a172 98bc 178d 31be
-0.20248589 0.23136243 0.3733645 -0.36965457 0.23666792 0.23452376 0.2696523 0.33966744
-0.41635278 0.0598637 -0.60004884 0.044696838 -0.13473274 -0.74880004 -0.95132494 0.4595691
0.5807112 -0.6362179 0.36917698 -0.17342274 0.04410803 -0.08249175 -0.30925465 0.21819212
0.084106065 -0.0379177 0.39653534 0.08515659 0.74226475 0.19327736 0.56880695 -0.2347977
-0.2153812 -0.7713567 -0.097448826 -0.1988896 -0.58339727 0.021630354 -0.24350013 -0.5622582
0.27556038 0.32172948 -0.03554955 -0.3032552 0.3635928 -0.05993244 -0.0920763 0.0010487074
-0.5236225 -0.10803273 0.08087859 -0.28579336 -0.7123464 0.40007433 0.17132653 -0.22211273
0.03960609 0.06938139 0.15765887 0.20723358 0.44330403 -0.40287083 0.43867907 0.54155695
0.32690042 -0.83881724 0.061975755 -0.102002 -0.0523791 -0.15634915 0.6531872 -0.38732275
0.367529 0.16852894 -0.43007696 -0.12991391 0.000982123 0.031519875 0.0593909 0.032185588
-0.017944897 0.3087208 -0.2635712 -0.12423727 0.020358596 0.39625502 -0.1679844 -0.15463276
0.48480114 -0.009534315 0.15698878 0.148285 0.039390516 -0.5672994 0.026236132 -0.32598296
-0.61038077 0.18435737 -0.018609347 -0.17338978

batchnorm3.running_var f4 [100]
00000000: ef40 e63d c2fa 933d 13e5 853d 808a 973d
00000010: 8c52 843d 8c38 c03d 204d 603d 68e1 ab3d
00000020: f7d7 d63d 2b92 d03d 182f 7e3d b97d 623d
00000030: b852 753d 250a b03d 383f f83d e180 913d
00000040: 559f 823d 2684 ea3d d906 833d 90d6 a43d
00000050: 8921 6d3d 047c 2a3e 779c f23d 8c58 a13d
00000060: 9ec2 ae3d 4fc5 673d 9bc1 093e 3944 e03d
00000070: 985c 3a3d 2456 cb3d c31e be3d 63ae 243e
00000080: a6fb 833d fd0f b43d 3612 ff3d 2404 593d
00000090: 6214 c73d db8e 603d 8d59 c43d 1719 c03d
000000a0: 3e84 d33d 6bec 0a3e 9bf2 b83d a4f7 723d
000000b0: efcd 973d 1b35 c03d c86d a83d c25a 5f3d
000000c0: aa05 ee3d fe3f e03d df0c e63d 6a28 d13d
000000d0: 7dda 8c3d ab2d 003e 2f65 863d ca17 0e3e
000000e0: 9c8d b83d bf45 ad3d 34a3 ca3d 47e6 a33d
000000f0: a144 9f3d 548e ec3d b06f b13d c365 cf3d
00000100: 6e6b 013e a9e7 fb3d 68ed ab3d e7c0 6b3d
00000110: 36dd 8a3d 8aa9 1c3e 86af 4f3d d12d 843d
00000120: 49aa 613d daa9 a13d ce37 fc3d ac2f 9a3d
00000130: e072 903d 4c01 ae3d 01ca e83d 75de 973d
00000140: e342 0e3e aede 0a3e 9336 923d 2ec8 613d
00000150: 2fdb bd3d e916 ef3d 4e15 053e be11 273e
00000160: eb22 bd3d aff4 9c3d ee9e f93d 93d0 e53d
00000170: a333 6d3d 2a80 aa3d e27b ef3d 1505 fd3d
00000180: e9da 0c3e 69bc 0f3e 935c b23d 3138 953d
0.11242854 0.07225563 0.06537833 0.07399464 0.06461057 0.093857855 0.054761052 0.08392602
0.10490411 0.10184129 0.06205663 0.05529568 0.05989334 0.08595685 0.12121433 0.0710466
0.063780464 0.114509866 0.063977905 0.08048737 0.05789331 0.1664887 0.118462496 0.07878217
0.08533214 0.056584653 0.13452761 0.109505124 0.04549846 0.099285394 0.09283211 0.16082148
0.064444825 0.08792112 0.12454645 0.052982464 0.097206846 0.054823738 0.09587393 0.093797855
0.103279576 0.13566749 0.09030648 0.0593182 0.074123256 0.09385129 0.08224064 0.054529913
0.11622174 0.109497055 0.11232924 0.102127865 0.06877611 0.12517421 0.06562268 0.13876262
0.09011385 0.08460569 0.0989441 0.08002906 0.07776762 0.115505844 0.08663881 0.101268314
0.12638637 0.12300045 0.08394891 0.057557013 0.06780474 0.15299049 0.0507045 0.06454051
0.055094037 0.07893725 0.123153314 0.07528624 0.07053161 0.08496341 0.11366654 0.07415477
0.13892703 0.13561508 0.071393155 0.055122547 0.092703216 0.11674292 0.12996408 0.16315362
0.09235176 0.07663857 0.121885166 0.11221423 0.057910573 0.083252266 0.11693551 0.12354485
0.13755383 0.14036717 0.087090634 0.07286108

momentum_buffer f4 [16, 1, 5, 5]
00000000: 0166 083d ef46 4a3d a8dd 433d aae3 533d
00000010: ce5a 5a3d 10b1 5c3d 24f0 8b3d 463e a73d
00000020: 76d5 ac3d fe31 973d 7e47 8a3d 0d2d a83d
00000030: 34fa c33d 41fa b03d 2ca7 643d 22ef 603d
00000040: d8d9 7b3d 34d9 7c3d dabe 473d 5883 da3c
00000050: 0e81 003d c41b 5e3c 23dc 1f3c bc24 8f3c
00000060: 955d 0c3c ac48 d93c 7e91 b7bb 6c80 173c
00000070: a68d 8e3c 0002 3f3a 2cc0 c53c e6a9 fe3b
00000080: 5d8d 493c 58ff 933c e311 96bc 3ed7 523d
00000090: f6d6 283d 45d4 8a3d fc9e 993d 06b9 fd3c
000000a0: 0b86 2c3d f292 a43d 70bf ff3d 6ca1 f93d
000000b0: 20df c63d 80b7 9d3d b03f 183e e013 493e
000000c0: 9257 453e 8db5 2e3e 4418 b03c cf0c 3d3c
000000d0: 2e16 80bb da50 53bc 5f79 94bc ca58 893b
000000e0: 12ef acbb c98d 81bc 63cb 72bc 5ac2 91bc
000000f0: f6ec 8dbc f99d a5bc ac0d b8bc c015 87bc
00000100: 87bd 5bbc 7aa2 e7bc be17 afbc 9bdf 62bc
00000110: 2b2f 21bc b486 12bc 12a5 90bc 8060 a1ba
00000120: 18f4 0d3c 5849 2b3b c852 c4bb f2ee 1bbc
00000130: 3811 c9bc def6 30bd bae4 5cbd 943e 58bc
00000140: 4e9b 80bb 3769 04bc d61c 53bc da57 c0bc
00000150: d94a b43c 076a 60bc db39 98bc ed4d 95bb
00000160: 2553 793c ba50 8c3d fbc2 4a3c cfb8 cd3b
00000170: 5865 413c 22f4 253d e88f bf3d 3ec6 c53c
00000180: 125f 5d3c 226b 143c f6bf 743d fead d43d
00000190: efc7 893d 40c2 203d b750 113d 9440 4f3d
000001a0: d09e 843d bdf4 5c3d 2c42 b73c e613 b73c
000001b0: d197 2c3d 1c8d 773d ccb3 1a3d 999e 6e3c
000001c0: e0f6 183c 1808 b63c 58a7 403d 6cff 7e3c
000001d0: 7e51 123b 601a cebb 681f e23b 421a ff3c
000001e0: 88c2 f6ba d24e 68bc 3ec4 0cbc 78ef 4b3c
000001f0: 4a52 eb3c 32f5 933d 8e9a 493d 82bf a73c
00000200: b92b c8bc 03df 70bd d4c3 cb3d b23b 953d
00000210: 7296 fd3c 925e a7bc 6b58 7dbd 841e b53d
00000220: 3495 553d 5c7c 7b3b 31d9 1ebd 3457 a9bd
00000230: 8254 943d b49f cc3c dc12 b3bc 5f0e 87bd
00000240: 8611 d7bd 466f 7b3d aae9 873c 8721 c4bc
00000250: 7477 8cbd cc9e d9bd 5169 a3bd 0009 51bd
00000260: 4878 02bc dffb 083d 9f6b 5b3d a684 fbbc
00000270: d028 f7bb 254d c63c 8c1a 6c3d 6c43 7d3d
00000280: 5079 ffba ae59 9c3c e25d e23c 9254 6e3d
00000290: 2a98 8d3d 1e39 fb3c 8b85 f23c e880 fb3c
000002a0: 6c31 543d c63f 7a3d afba 3e3d aafa fa3c
000002b0: c2ea 863c c8c5 a23c d6ff c63c 6037 b8bb
000002c0: 003f 13bc b8dd 813c 8ef7 573d 9012 a93d
000002d0: 6202 7fbc 6919 c0bc fc51 d0bb 4a80 1e3d
000002e0: 209e 923d a5b4 13bd 0c79 38bd 6369 debc
000002f0: 2bf8 b93c b042 833d bb79 24bd 9640 30bd
00000300: 5b49 fbbc 5846 143c c048 283d 72af e8bc
00000310: 4db4 dfbc a493 d3bc c45d 4dbc 2008 a53b
00000320: 3f2a 2a3c aced 213c 0e5c 983c 1bf2 9a3c
00000330: 0230 c93b 6883 89ba 1e2d c33b 222c ae3c
00000340: 5f21 6b3c 82a8 5b3b 00b8 89bb 5c8a d13b
00000350: acf7 903c a3f4 093c 3913 9e3b 6090 bbbb
00000360: 8c71 c03b 5de8 5c3c 62f7 8e3b bc2b c039
00000370: 183d 0fbb 7d67 183c b35a c43b a257 d4ba
00000380: 8240 1dbc 1501 50bd 0ea2 39bd a03b bebc
00000390: 12e6 ebbc 4886 d83c c275 b2bc b014 85bc
000003a0: a029 82bb e84d 8dbc b07c 7d3c 661a a23c
000003b0: 2015 c33b 0054 e43b e0ad 10bc 8ea6 8abc
000003c0: 028d 8d3d 69da 4a3d 8899 1e3d c413 3e3c
000003d0: d7bc 15bd 4a4c d13d 0c6e b13d a10f 893d
000003e0: de74 523c 8cde 58bd 86ba 67bd b180 12bd
000003f0: e03b 2ebc 94ea 343c 7ba9 e23c 74de 64bd
0.033300404 0.049384054 0.04781881 0.05173079 0.053309254 0.053879797 0.068329126 0.081661746
0.08439152 0.07382582 0.06751917 0.08211718 0.09569207 0.08641482 0.05582349 0.054915555
0.06148705 0.06173058 0.048765995 0.026673958 0.031373076 0.0135564245 0.0097570745 0.017473571
0.008567234 0.02652391 -0.005602061 0.009246927 0.017401528 0.000728637 0.024139486 0.0077717183
0.01230177 0.018066093 -0.018319076 0.051474802 0.041220628 0.067787685 0.07501027 0.030972015
0.04212002 0.0803584 0.12487686 0.12188992 0.097105265 0.077010155 0.14868045 0.19636488
0.19271687 0.17061444 0.021495946 0.011538698 -0.003908894 -0.0128976945 -0.01812428 0.0041914927
-0.005277523 -0.015814679 -0.014818999 -0.01779287 -0.017324906 -0.020216929 -0.022467457 -0.016489863
-0.013411886 -0.028275717 -0.021373626 -0.013847257 -0.009837906 -0.008943249 -0.017656837 -0.0012312084
0.0086641535 0.0026136246 -0.0059913136 -0.009517418 -0.024544343 -0.04320418 -0.05392907 -0.013198514
-0.0039247638 -0.008081726 -0.012885293 -0.02347939 0.022008346 -0.013697154 -0.018582275 -0.0045564086
0.015217577 0.06851335 0.0123755885 0.0062781344 0.011803947 0.040516026 0.0935362 0.02414238
0.013511436 0.009058746 0.05975338 0.10384749 0.067275874 0.03924775 0.035477366 0.050598696
0.064756036 0.053944338 0.02237042 0.022348356 0.04213697 0.060437307 0.037769124 0.01456418
0.009336203 0.022220656 0.04703459 0.015563827 0.0022326405 -0.0062897652 0.0069007166 0.03114045
-0.0018826285 -0.0141789485 -0.00859171 0.0124472305 0.028725762 0.07224502 0.04921966 0.02047706
-0.024434911 -0.05880643 0.099494606 0.072867766 0.030955527 -0.020430837 -0.0618519 0.08843711
0.052144244 0.0038373685 -0.03878135 -0.08268586 0.07242681 0.024978496 -0.021859579 -0.06594538
-0.10501389 0.061385415 0.016590912 -0.023941768 -0.068587214 -0.10625991 -0.07979072 -0.051033974
-0.007963248 0.033443328 0.053569432 -0.0307029 -0.007542707 0.024206707 0.057642505 0.061831877
-0.001949111 0.019085731 0.027632657 0.05818612 0.069137886 0.030666884 0.029604694 0.030701116
0.051804945 0.061095975 0.046564754 0.030637104 0.016469363 0.0198697 0.024291914 -0.0056218356
-0.008987188 0.015852794 0.05272632 0.08255494 -0.015564533 -0.023449617 -0.0063574295 0.038696565
0.07159066 -0.036060948 -0.045037314 -0.027149862 0.022701344 0.06409204 -0.040155154 -0.043030344
-0.030674627 0.009049974 0.041085005 -0.028403971 -0.027307654 -0.025827236 -0.0125345625 0.005036369
0.010386049 0.009883326 0.018598583 0.018914273 0.006139756 -0.0010491433 0.005956306 0.021261279
0.014351218 0.0033517187 -0.0042028427 0.0063946676 0.017696224 0.008420142 0.004824069 -0.005723998
0.005872911 0.013483134 0.0043629864 0.00036653678 -0.0021856483 0.009302017 0.0059922575 -0.0016200433
-0.009597899 -0.050782282 -0.045320563 -0.02322179 -0.02879623 0.026431218 -0.021784667 -0.016245216
-0.0039722472 -0.017249063 0.015471622 0.019787978 0.005953446 0.0069680214 -0.0088305175 -0.016925123
0.06911661 0.0495247 0.038720638 0.011601392 -0.036557045 0.10219629 0.08663568 0.06692434
0.012845246 -0.052946612 -0.056574367 -0.03576726 -0.0106343925 0.011042256 0.027668705 -0.05587621

momentum_buffer f4 [16]
00000000: aa94 2035 c324 d637 a450 d035 568e 0a35
00000010: 21ef 0b35 d75a 76b6 62d0 6437 4f1e be35
00000020: 4a4f f635 48a0 64b5 d3d7 b735 24f0 8a35
00000030: 8181 62b5 4ce1 4c36 89f6 2036 ce43 5635
5.982098e-07 2.5527906e-05 1.5520677e-06 5.161613e-07 5.2129514e-07 -3.6709732e-06 1.3638377e-05 1.4164924e-06
1.8351504e-06 -8.516986e-07 1.3697376e-06 1.0351691e-06 -8.4380014e-07 3.052951e-06 2.398536e-06 7.981988e-07
