examples/mpc_cifar/model/cifar-model-checkpoint.pth.tar (torch_old, 499207 bytes, 20 tensors)

conv1.weight f4 [6, 3, 5, 5]
-0.09600526 0.31713173 0.3931861 0.360114 0.13435566 -0.03927863 -0.004354168 0.072630115
0.1311211 0.32550803 0.059324425 0.07893311 -0.34374526 -0.12165135 0.47831237 0.2436099
0.534009 -0.6660613 -0.36687362 0.42171857 0.18145438 0.39700678 -0.7106618 -0.4747329
-0.01315819 -0.29831392 -0.28668892 -0.4272154 -0.34295535 -0.15584835 0.07210583 -0.21370351
-0.357865 -0.23765397 0.06986917 0.40595087 0.12296415 -0.7948327 -0.42660815 0.34912774
0.33808467 0.5904729 -1.0213385 -0.54147875 0.4578363 0.40373412 0.5856143 -0.7795921
-0.44177702 0.20084359 -0.121592626 0.05833493 0.14517942 0.10701979 -0.100253984 0.11272642
0.01400532 -0.1577766 0.06259494 0.14986862 0.09698055 0.26303986 -0.4922475 -0.24397072
0.40569788 0.26187438 0.3928908 -0.8023519 -0.4899592 0.3922777 0.3544573 0.64233273
-0.4270362 -0.30603182 0.35624892 -0.26419526 -0.01427188 0.06459862 0.11957503 0.013287192
-0.21636356 -0.24332628 -0.11217417 0.02928277 -0.15682861 -0.2602531 -0.3884008 -0.2485823
-0.040806636 -0.26359627 -0.29743537 -0.27627453 -0.3167346 -0.26606882 -0.2932925 -0.14550112
-0.161559 -0.29633954 -0.31605887 -0.31664404 -0.1829036 -0.094881654 0.06814554 0.040778082
-0.0058424487 -0.12824096 -0.034202907 0.084234536 0.02154709 -0.09480358 0.020395804 0.029881699
0.06845633 0.2554834 0.0038054073 0.059850913 0.06265846 0.08103082 0.29150257 0.112556845
-0.120734304 -0.15146476 -0.05967103 0.116758876 -0.110811 -0.046505656 0.06194884 0.025279356
0.13781948 -0.19780274 0.019208398 0.12380506 0.14499293 0.24708222 0.099253446 0.21412906
0.37320128 0.37289613 0.3143849 0.21759804 0.16620928 0.3207305 0.32254913 0.37622595
0.2858018 0.11651466 0.18497084 0.1644114 0.3509076 -0.05996344 -0.26983672 -0.65956295
0.0043076766 0.05622467 -0.22529602 -1.1434944 -0.1572114 1.0624181 0.18755445 -0.24739239
-0.26480055 0.59035176 0.0291704 0.03122497 -0.20149903 0.35716596 0.3024301 -0.9143744
0.05553056 0.3114683 0.34439915 0.24687783 -0.308699 0.006556675 -0.005468465 -0.13524127
-0.3546052 0.36593184 0.23295054 0.19905555 -0.9605067 0.057200048 1.1197417 0.20740558
-0.09032132 -0.27537966 0.57164997 0.11056575 0.0963174 -0.014840804 0.20592545 0.3071387
-0.82097816 0.17826156 0.4086345 0.10023952 -0.07694566 -0.14536318 -0.13322268 0.10744522
-0.19673 -0.48830968 0.05376573 0.18857022 0.07232824 -1.0128117 0.08759397 0.7770676
-0.06252864 -0.1641025 -0.11867267 0.54545254 0.042329896 -0.059630234 -0.1794849 0.37361303
0.2615118 -0.70489633 0.20462996 0.27096617 0.042764243 0.1627364 -0.17958468 -0.04658983
-0.07538699 0.26631403 0.06711974 0.058194265 0.30872393 0.21943563 0.24347013 0.6825459
0.81048614 0.74169016 0.21006663 -0.18699309 0.2424904 0.29186508 0.21637788 -0.16805847
-0.19549343 -0.5358628 -0.9067522 -0.7867955 -0.01812517 -0.25390533 -0.35128376 -0.23348077
-0.30597645 -0.041118134 -0.010852962 -0.2852824 -0.40651456 -0.05874014 -0.26792654 0.18626693
00000000: 689e c4bd 175f a23e b04f c93e dd60 b83e
00000010: 8894 093e a1e2 20bd 69ad 8ebb 19bf 943d
00000020: 9c44 063e fda8 a63e 2bfe 723d afa7 a13d
00000030: 61ff afbe 5824 f9bd 5ce5 f43e e074 793e
00000040: d0b4 083f fe82 2abf dcd6 bbbe 7feb d73e
00000050: 2dcf 393e 7944 cb3e efed 35bf 3110 f3be
00000060: 7395 57bc 9abc 98be e4c8 92be fabb dabe
00000070: d897 afbe b696 1fbe 39ac 933d 18d5 5abe
00000080: 153a b7be 905b 73be 9117 8f3d cbd8 cf3e
00000090: a1d4 fb3d 287a 4bbf 626c dabe dfc0 b23e
000000a0: 6f19 ad3e 3b29 173f 38bb 82bf 5a9e 0abf
000000b0: 8569 ea3e 3db6 ce3e d2ea 153f 5993 47bf
000000c0: 9930 e2be f1a9 4d3e 8e05 f9bd 9cf0 6e3d
000000d0: eaa9 143e 312d db3d f651 cdbd 1cdd e63d
000000e0: 9276 653c 3090 21be c731 803d 2977 193e
000000f0: bd9d c63d 29ad 863e dd07 fcbe 76d3 79be
00000100: a2b7 cf3e 6614 863e fc28 c93e ef66 4dbf
00000110: efdb fabe 9fd8 c83e 6d7b b53e eb6f 243f
00000120: 7da4 dabe 34b0 9cbe 4266 b63e 9a44 87be
00000130: 9ad4 69bc 484c 843d c1e3 f43d 86b2 593c
00000140: 698e 5dbe 862a 79be 92bb e5bd 6be2 ef3c
00000150: ae97 20be e53f 85be 78dc c6be 5c8c 7ebe
00000160: dc24 27bd 17f6 86be 7349 98be db73 8dbe
00000170: 0a2b a2be 2c3a 88be 6f2a 96be 3ffe 14be
00000180: b96f 25be d1b9 97be 78d2 a1be 2b1f a2be
00000190: 154b 3bbe 5051 c2bd e48f 8b3d eb06 273d
000001a0: 0372 bfbb 9951 03be 5918 0cbd 2883 ac3d
000001b0: 8683 b03c 6128 c2bd 1a15 a73c 77ca f43c
000001c0: d532 8c3d b8ce 823e 2464 793b 3b26 753d
000001d0: 1453 803d 7df3 a53d d33f 953e 3484 e63d
000001e0: 8c43 f7bd 9419 1bbe 9c69 74bd 471f ef3d
000001f0: e1f0 e2bd b77c 3ebd 11be 7d3d a716 cf3c
00000200: 8d20 0d3e cd8c 4abe ee5a 9d3c 828d fd3d
00000210: 0779 143e 1f03 7d3e 6445 cb3d a644 5b3e
00000220: 3d14 bf3e 3eec be3e 0ff7 a03e 05d2 5e3e
00000230: c432 2a3e ca36 a43e 2925 a53e b0a0 c03e
00000240: 9d54 923e 3d9f ee3d ff68 3d3e 765b 283e
00000250: 29aa b33e 399c 75bd 0a28 8abe 1ed9 28bf
00000260: 6927 8d3b d74b 663d 00b4 66be 065e 92bf
00000270: 06fc 20be 51fd 873f 460e 403e 6e54 7dbe
00000280: f093 87be 4b21 173f c3f6 ee3c 82cb ff3c
00000290: c355 4ebe 75de b63e 1ed8 9a3e 7114 6abf
000002a0: 0374 633d c678 9f3e 1655 b03e 8bcd 7c3e
000002b0: cc0d 9ebe 60d9 d63b cf30 b3bb b07c 0abe
000002c0: d08e b5be 6b5b bb3e 968a 6e3e 38d5 4b3e
000002d0: c4e3 75bf 994a 6a3d b253 8f3f 2162 543e
000002e0: 62fa b8bd 90fe 8cbe a757 123f 4c70 e23d
000002f0: 0f42 c53d d826 73bc 1fde 523e 4941 9d3e
00000300: a02b 52bf 338a 363e 8b38 d13e 614a cd3d
00000310: b095 9dbd 16da 14be 876b 08be 3d0c dc3d
00000320: 9773 49be ba03 fabe 7439 5c3d 8d18 413e
00000330: d420 943d d0a3 81bf 7864 b33d e7ed 463f
00000340: 040f 80bd 7c0a 28be a80a f3bd c7a2 0b3f
00000350: 1d62 2d3d d53e 74bd e4ca 37be 354a bf3e
00000360: e0e4 853e 1674 34bf 848a 513e 14bc 8a3e
00000370: 8f29 2f3d 5fa4 263e 0ce5 37be fad4 3ebd
00000380: 7f64 9abd 505a 883e 1376 893d 1c5d 6e3d
00000390: 1011 9e3e bcb3 603e 3c50 793e 54bb 2e3f
000003a0: 057c 4f3f 68df 3d3f b51b 573e 1e7b 3fbe
000003b0: 674f 783e 576f 953e 2a92 5d3e 8517 2cbe
000003c0: 6e2f 48be 4e2e 09bf ea20 68bf 6e6b 49bf
000003d0: 3d7b 94bc e1ff 81be 77db b3be 9515 6fbe
000003e0: f2a8 9cbe 7d6b 28bd 9fd0 31bc 8910 92be
000003f0: ad22 d0be 8099 70bd ab2d 89be c2bc 3e3e

conv1.bias f4 [6]
-0.21647729 0.46760294 0.0077593415 -0.4489182 -0.2649107 0.39453894
00000000: 39ac 5dbe a769 ef3e 1342 fe3b 9bd8 e5be
00000010: 60a2 87be 0201 ca3e

conv2.weight f4 [16, 6, 5, 5]
-0.24245235 0.034398735 0.047626015 -0.037458792 -0.24484286 0.06397978 0.060765125 0.20056851
-0.10172347 -0.1892573 0.16849476 -0.09061593 -0.07760143 0.16046065 0.08373517 -0.04208995
-0.17612028 -0.12821817 -0.07932384 -0.122157 -0.15789141 -0.02294947 0.052422002 -0.09960714
-0.16676337 -0.010113432 0.009820204 0.08620173 -0.08334514 -0.0005548918 -0.077255584 -0.22272944
-0.086477436 0.010693649 0.0017199237 -0.20128165 -0.12097811 -0.057456408 -0.072529115 0.14025481
-0.06852932 -0.098208524 -0.015660906 -0.10002636 -0.018861473 0.18343015 0.15286966 0.16985881
0.11874693 0.27562478 -0.12503198 -0.18928096 -0.32613993 -0.29187074 -0.03845408 0.13627544
-0.07270501 -0.3154161 -0.06351281 0.045203343 -0.14127834 -0.1684295 -0.14217663 0.04900997
-0.15867664 0.011859087 0.18840674 0.10842885 -0.11690261 -0.33139852 0.2624542 0.3244089
-0.08079986 -0.18130434 -0.37412247 -0.18768273 0.033287175 0.24198392 0.06950566 -0.19719648
0.06809249 0.0608618 -0.017373268 -0.1090503 -0.10886896 0.12194875 -0.06653438 -0.08495948
-0.026754558 0.013102715 0.054893266 -0.17517331 0.12850673 0.060465965 -0.09568752 0.20790996
0.13768484 -0.01621037 -0.17554224 -0.16264969 0.12643029 0.066714 0.027523313 -0.016352277
-0.16130634 -0.17215163 0.05651278 0.18224658 -0.03158104 -0.19651033 -0.09607965 -0.19031733
-0.096357465 -0.12907219 -0.039722696 0.2293587 -0.13772124 -0.19287238 -0.1013546 -0.069423705
-0.06376804 -0.12187847 -0.021940637 -0.13367428 -0.12774491 0.62275463 0.40525338 0.1952314
-0.015848216 -0.10443795 0.33584785 0.06703322 -0.08389674 -0.2068765 -0.17594795 0.3681466
0.11978534 -0.0039260774 -0.08497335 -0.18714187 0.17292479 0.12991889 0.23687859 0.08761283
-0.16973387 0.10299605 0.059726786 0.30283016 0.14924505 -0.1706703 0.26452923 0.49020335
-0.14140068 -0.33861068 -0.10437027 -0.34991232 -0.25051057 0.2637212 0.13006121 -0.16901124
-0.0052549276 -0.28238925 -0.26811296 0.1214737 0.06089548 0.045744404 0.07539359 -0.04717354
-0.19938432 0.076594636 0.0707359 0.0638451 0.04237137 -0.07969448 0.012330054 -0.09734838
-0.06578074 0.016220078 -0.0010807037 -0.04273651 0.17191441 -0.16575664 -0.10978415 -0.15073128
-0.10024055 0.22529407 -0.0023788977 -0.14133655 -0.09162475 -0.0041353004 0.23419708 0.09784773
0.0009279489 -0.051671904 -0.19019157 0.13098072 0.15160067 0.10587074 0.041138086 0.015102038
-0.050709073 0.5485481 0.423805 -0.18160553 -0.06381842 -0.03724459 -0.5609349 0.15163659
0.32925916 -0.0572373 0.07528389 -0.2773691 -0.42433336 0.106561 0.08076376 -0.028560499
0.035327476 -0.119318925 -0.4243123 -0.04935466 -0.10532069 -0.1913162 -0.07581938 -0.19271487
-0.11329911 -0.23354125 0.26365593 0.45209083 0.15429999 -0.41405833 0.15772286 -0.19013952
-0.18181983 0.07881563 0.23285034 -0.12883575 0.15265562 0.26576462 -0.0756589 -0.23184094
-0.12778077 -0.025575243 0.12333099 0.073941804 -0.11927805 -0.10313457 -0.10033034 -0.15506668
0.06512504 0.02610678 0.22380485 0.48371473 0.005722462 -0.051876914 -0.1846243 -0.35354894
00000000: 6e45 78be b0e5 0c3d 7f13 433d 646e 19bd
00000010: 16b8 7abe d507 833d dae4 783d d561 4d3e
00000020: 6554 d0bd aacc 41be e489 2c3e d894 b9bd
00000030: 80ed 9ebd cc4f 243e 587d ab3d 8366 2cbd
00000040: e058 34be a04b 03be 8a74 a2bd 732d fabd
00000050: 49ae 21be 8700 bcbc 74b8 563d d4fe cbbd
00000060: 04c4 2abe cfb2 25bc ece4 203c 888a b03d
00000070: dbb0 aabd 2976 11ba 2d38 9ebd 3013 64be
00000080: 151b b1bd 6a34 2f3c 106f e13a c71c 4ebe
00000090: 5fc3 f7bd 6957 6bbd 258a 94bd f59e 0f3e
000000a0: 1a59 8cbd 8d21 c9bd 4d4b 80bc 9fda ccbd
000000b0: 6083 9abc 1dd5 3b3e dd89 1c3e 78ef 2d3e
000000c0: 9731 f33d b11e 8d3e 6208 00be ded2 41be
000000d0: d0fb a6be 1570 95be 0682 1dbd ca8b 0b3e
000000e0: 5de6 94bd 387e a1be 0113 82bd 2427 393d
000000f0: 45ab 10be c878 2cbe c096 11be aebe 483d
00000100: 217c 22be 9e4c 423c b2ed 403e f20f de3d
00000110: a36a efbd 11ad a9be 6660 863e ec18 a63e
00000120: 667a a5bd d8a7 39be fb8c bfbe e72f 40be
00000130: 2258 083d a2ca 773e fc58 8e3d e0ed 49be
00000140: 1374 8b3d 394a 793d 6252 8ebc c455 dfbd
00000150: b0f6 debd 44c0 f93d 2d43 88bd 3cff adbd
00000160: 602c dbbc c5ac 563c c3d7 603d a260 33be
00000170: 4597 033e 29ab 773d d2f7 c3bd 59e6 543e
00000180: 41fd 0c3e 9ccb 84bc 58c1 33be a48d 26be
00000190: f176 013e 5aa1 883d 9278 e13c 36f5 85bc
000001a0: 7d2d 25be 8448 30be f279 673d d99e 3a3e
000001b0: 1f5b 01bd 013a 49be 68c5 c4bd 8ce2 42be
000001c0: 1057 c5bd 802b 04be 44b4 22bd 02dd 6a3e
000001d0: cc06 0dbe 5680 45be 0093 cfbd 042e 8ebd
000001e0: d198 82bd 6b9b f9bd dabc b3bc e9e1 08be
000001f0: 90cf 02be d96c 1f3f 5f7d cf3e bdea 473e
00000200: 1ed4 81bc 90e3 d5bd 40f4 ab3e b648 893d
00000210: 0ed2 abbd 6fd7 53be b32b 34be b67d bc3e
00000220: 0452 f53d 53a6 80bb 8206 aebd 1ea2 3fbe
00000230: 3213 313e 7509 053e 4d90 723e 5b6e b33d
00000240: b7ce 2dbe 98ef d23d 13a4 743d 8e0c 9b3e
00000250: b2d3 183e 32c4 2ebe 6070 873e effb fa3e
00000260: 57cb 10be 615e adbe 15c0 d5bd b527 b3be
00000270: ec42 80be 7706 873e c42e 053e 4811 2dbe
00000280: 8731 acbb 5395 90be 1a46 89be 34c7 f83d
00000290: 8a6d 793d 7c5e 3b3d f467 9a3d 0b39 41bd
000002a0: 672b 4cbe a6dd 9c3d fcdd 903d 38c1 823d
000002b0: 9a8d 2d3d dc36 a3bd ff03 4a3c 965e c7bd
000002c0: 0db8 86bd f8df 843c 66a6 8dba 7b0c 2fbd
000002d0: 550a 303e 1cbc 29be 83d6 e0bd 4d59 1abe
000002e0: eb4a cdbd 7db3 663e 48e7 1bbb 87ba 10be
000002f0: c2a5 bbbd 6a81 87bb 5cd1 6f3e 6464 c83d
00000300: 9941 733a eba5 53bd 94c1 42be cf1f 063e
00000310: 353d 1b3e c2d2 d83d 6980 283d 8a6e 773c
00000320: 51b4 4fbd a66d 0c3f f8fc d83e cdf6 39be
00000330: 3bb3 82bd c98d 18bd 6e99 0fbf 9f46 1b3e
00000340: a894 a83e a971 6abd 712e 9a3d 5303 8ebe
00000350: 3942 d9be a73c da3d 7867 a53d b5f7 e9bc
00000360: 8bb3 103d 7b5d f4bd 763f d9be 1d28 4abd
00000370: 60b2 d7bd 65e8 43be 3147 9bbd 0c57 45be
00000380: 5d09 e8bd 7025 6fbe e9fd 863e 7378 e73e
00000390: d100 1e3e 74ff d3be 1a82 213e efb3 42be
000003a0: fa2e 3abe 176a a13d 5270 6e3e 85ed 03be
000003b0: c151 1c3e 4d12 883e 0ef3 9abd b667 6dbe
000003c0: f6d8 02be 2c83 d1bc f594 fc3d cd6e 973d
000003d0: 0d48 f4bd 3838 d3bd fe79 cdbd cdc9 1ebe
000003e0: 4760 853d e3dd d53c 192d 653e 75a9 f73e
000003f0: 7e83 bb3b e37c 54bd 270e 3dbe 5e04 b5be

conv2.bias f4 [16]
0.84324485 0.1171481 -0.19005355 0.34146172 -0.19012249 -0.6563168 -1.2974272 -0.06470524
0.71907985 -0.5921206 -0.32116663 0.7264771 -0.28673932 0.09198582 1.5262936 0.18196687
00000000: e5de 573f 58eb ef3d 669d 42be 12d4 ae3e
00000010: 78af 42be 6104 28bf 1812 a6bf 2e84 84bd
00000020: 9e15 383f 3795 17bf f46f a4be 67fa 393f
00000030: 7fcf 92be 1063 bc3d 975d c33f 8655 3a3e

fc1.weight f4 [120, 400]
-0.015969053 -0.02901137 -0.06601146 -0.06792338 -0.14528419 0.13440473 0.065485105 0.11759049
-0.032805484 -0.09320999 0.0502967 0.016110318 0.10352785 0.047631253 -0.04000698 -0.056382097
-0.080781445 -0.0037751873 0.06067999 0.08729551 0.050951295 -0.09800481 -0.020881016 -0.009761004
0.07504711 0.032117642 -0.070431076 -0.18030997 -0.048595376 -0.087637566 -0.023147063 0.03412897
-0.089278735 -0.11099491 -0.08035703 0.0031980285 -0.0048487107 -0.14723845 -0.029246155 -0.012075329
0.12060391 -0.010946569 -0.020443244 -0.07589454 0.13016376 0.19218305 0.058439225 0.101544976
0.11033271 0.11832099 -0.07892854 0.0597873 -0.008492504 -0.04998549 0.07966618 0.016443666
-0.012381114 -0.019609705 -0.049547564 -0.00068431755 0.053711127 -0.017185379 0.028943518 -0.13189702
-0.0042374865 0.00975531 0.04948276 -0.04354374 -0.060532574 -0.076599896 -0.0139736 0.020205263
0.046424486 -0.04619683 -0.05997679 -0.022021478 0.024332112 -0.05304039 -0.07419078 0.035671372
-0.10286137 -0.027640164 -0.04075476 0.080584995 0.087654375 -0.037726104 0.009785759 0.014372462
0.07498861 -0.04048916 -0.02113146 -0.058389045 0.03235291 0.036971677 -0.1137659 0.0357085
-0.04243147 -0.03101506 -0.02482415 -0.0320634 0.024539642 0.089705095 0.0023151555 0.005443873
-0.07476367 -0.024026234 0.0038629025 0.114425205 0.09456631 -0.022129426 0.042143963 -0.06583378
-0.08366906 0.020498745 0.005651206 -0.028973822 0.006540132 -0.0019231469 0.0059269317 0.021420889
0.010869486 0.052829962 0.0731766 0.043150228 0.051063783 -0.057334032 -0.047763024 -0.079023056
-0.0063110082 -0.12467597 0.041002903 0.034453854 -0.06628948 -0.044790857 0.008956784 0.024735425
0.017218418 -0.029673317 -0.06553257 -0.004218261 -0.025050685 0.021288399 0.036301035 0.016490137
-0.05199132 -0.26070026 -0.10720689 -0.04369043 0.035607975 -0.07894696 -0.19231305 -0.23367082
-0.17822559 -0.07249031 -0.0856693 -0.20682013 -0.059812956 -0.13964981 -0.11658953 0.0015256924
-0.043665275 -0.04978804 -0.00560074 0.050773777 0.11436996 0.15016735 0.17355312 0.109396175
-0.060979232 -0.13547975 0.007862563 0.16897245 0.124943644 -0.04324258 -0.19249211 0.0042698113
0.007186395 -0.009765085 -0.044298306 -0.039607167 0.13660184 0.017255586 -0.026173115 -0.016318204
0.0049752016 0.09614745 -0.13763712 0.026175974 -0.085019976 0.08656467 -0.09972871 -0.01901594
-0.10624618 -0.082158804 0.03948004 0.007355555 0.010086924 0.04954488 0.03581018 0.09623417
-0.01418091 -0.01759101 -0.0825782 -0.12338982 -0.13928302 0.031078473 -0.019337049 0.0030433782
-0.022458095 -0.16722178 0.085777275 0.14690813 0.051450018 -0.0016457858 -0.06421166 0.0032308295
-0.037994538 -0.005703972 0.043919545 0.1589612 0.030660566 -0.07133229 -0.13691506 -0.16285424
0.0776035 -0.10740635 -0.1093087 -0.13154085 -0.083820745 -0.11831208 -0.0062447125 -0.12107397
-0.08396333 -0.15906978 -0.09245955 -0.0293862 -0.1288633 -0.09480235 0.018579042 -0.03440452
-0.06344894 0.01209224 0.05426747 0.11401582 0.03429952 -0.03078791 0.13406622 0.08393158
0.068768024 0.048994593 -0.10170951 -0.042314574 -0.053404756 -0.008462922 0.018626925 -0.05212367
00000000: 88d1 82bc 41a9 edbc 0431 87bd 6a1b 8bbd
00000010: 61c5 14be 65a1 093e 0e1d 863d 48d3 f03d
00000020: 0b5f 06bd e1e4 bebd ea03 4e3d c9f9 833c
00000030: 6906 d43d fd18 433d 5cde 23bd eaf0 66bd
00000040: be70 a5bd 2269 77bb 958b 783d fdc7 b23d
00000050: 4eb2 503d bfb6 c8bd aa0e abbc 9eec 1fbc
00000060: 4db2 993d ca8d 033d 2b3e 90bd 2da3 38be
00000070: f20b 47bd 537b b3bd e99e bdbc d2ca 0b3d
00000080: c5d7 b6bd 4d51 e3bd 3a92 a4bd 0496 513b
00000090: efe1 9ebb adc5 16be a295 efbc 9ad7 45bc
000000a0: 2fff f63d 3d59 33bc 9778 a7bc 996e 9bbd
000000b0: a649 053e a2cb 443e f85d 6f3d d0f6 cf3d
000000c0: 1ef6 e13d 4652 f23d 49a5 a1bd 87e3 743d
000000d0: 2524 0bbc 96bd 4cbd 0628 a33d deb4 863c
000000e0: 28da 4abc 88a4 a0bc 63f2 4abd c663 33ba
000000f0: 3300 5c3d 5ac8 8cbc f51a ed3c 0310 07be
00000100: 9dda 8abb bcd4 1f3c 6fae 4a3d ec5a 32bd
00000110: 01f1 77bd 68e0 9cbd 87f1 64bc 8285 a53c
00000120: 9a27 3e3d e338 3dbd 39aa 75bd 6366 b4bc
00000130: 2354 c73c e140 59bd 56f1 97bd 251c 123d
00000140: fba8 d2bd a06d e2bc 77ee 26bd bf09 a53d
00000150: 2384 b33d b086 1abd 7354 203c 7a7a 6b3c
00000160: a193 993d f6d7 25bd e21b adbc 5a29 6fbd
00000170: 7c84 043d 9d6f 173d 19fe e8bd 1343 123d
00000180: 9fcc 2dbd 4c13 febc 045c cbbc e954 03bd
00000190: 5c07 c93c 4eb7 b73d ddb9 173b 8462 b23b
000001a0: b21d 99bd aad2 c4bc c028 7d3b c357 ea3d
000001b0: fbab c13d c548 b5bc 269f 2c3d dcd3 86bd
000001c0: af5a abbd fcec a73c c02d b93b 825a edbc
000001d0: 9b4e d63b 1a12 fcba b536 c23b dc7a af3c
000001e0: ee15 323c 3b64 583d 9ddd 953d 4bbe 303d
000001f0: 4228 513d 17d7 6abd 29a3 43bd d7d6 a1bd
00000200: 93cc cebb 1d56 ffbd a9f2 273d 7c1f 0d3d
00000210: c7c2 87bd 9e76 37bd 7abf 123c f2a1 ca3c
00000220: a40d 8d3c 7515 f3bc f135 86bd 5739 8abb
00000230: 1837 cdbc 0265 ae3c 65b0 143d 5316 873c
00000240: daf4 54bd 817a 85be 498f dbbd bcf4 32bd
00000250: abd9 113d f2ae a1bd b6ed 44be 6747 6fbe
00000260: c580 36be cd75 94bd 6373 afbd a8c8 53be
00000270: 6efe 74bd 5c00 0fbe 7ec6 eebd bef9 c73a
00000280: 5cda 32bd 8bee 4bbd 6a86 b7bb 2af8 4f3d
00000290: cc3a ea3d 78c5 193e e9b7 313e 1a0b e03d
000002a0: 5cc5 79bd 34bb 0abe fbd1 003c 1d07 2d3e
000002b0: 74e2 ff3d 221f 31bd a71c 45be c6e9 8b3b
000002c0: da7b eb3b bcfd 1fbc 2472 35bd 203b 22bd
000002d0: 5ae1 0b3e 965b 8d3c 0069 d6bc c1ad 85bc
000002e0: 0407 a33b f4e8 c43d bff0 0cbe ff6e d63c
000002f0: f41e aebd d148 b13d 913e ccbd 51c7 9bbc
00000300: 9997 d9bd e042 a8bd d3b5 213d de06 f13b
00000310: a043 253c 92ef 4a3d b2ad 123d 6c16 c53d
00000320: 0c57 68bc 061b 90bc c21e a9bd cdb3 fcbd
00000330: 35a0 0ebe 4898 fe3c bb68 9ebc 6a73 473b
00000340: 0afa b7bc 303c 2bbe ffab af3d 166f 163e
00000350: 41bd 523d 68b7 d7ba 6781 83bd 53bc 533b
00000360: 29a0 1bbd 63e8 babb fbe4 333d bac6 223e
00000370: de2b fb3c aa16 92bd 7633 0cbe 43c3 26be
00000380: 95ee 9e3d dcf7 dbbd 3ddd dfbd a5b2 06be
00000390: 36aa abbd 9b4d f2bd 72a0 ccbb a1f5 f7bd
000003a0: f7f4 abbd 30e3 22be 6f5b bdbd 54bb f0bc
000003b0: bef4 03be bc27 c2bd 1333 983c c1eb 0cbd
000003c0: 85f1 81bd 881e 463c 9147 5e3d 2081 e93d
000003d0: a77d 0c3d ed36 fcbc a848 093e 52e4 ab3d
000003e0: 40d6 8c3d 8eae 483d 134d d0bd 0c52 2dbd
000003f0: f2be 5abd 11a8 0abc 7e97 983c a17f 55bd

fc1.bias f4 [120]
0.114819065 -0.08950936 -0.1298945 0.27653807 0.042048104 -0.28991747 -0.053064264 0.096895695
-0.0769617 0.011518764 0.08848034 0.15699922 0.118835695 0.04028943 0.09921856 -0.0066204495
-0.13681586 0.2840328 -0.060955964 0.1373058 0.22866373 0.0903126 0.006432867 -0.12807691
0.0929912 0.23010543 0.1483133 0.1929641 0.10955828 -0.15187328 0.038321916 0.10035319
-0.11417458 0.106186464 0.08537539 -0.038089585 0.1995983 0.14452821 -0.15343006 0.13052496
-0.0515282 -0.089446224 0.028227935 -0.020515917 0.012528851 -0.00016955312 0.060940333 -0.24028993
-0.072980024 -0.01956268 -0.076555766 0.06700647 0.23395807 -0.116015695 0.06358001 0.0061783395
-0.056790635 0.22659817 -0.19749103 -0.04520243 -0.14154169 -0.25992787 -0.05397501 -0.024161933
0.013757862 -0.026032811 -0.16037504 -0.0029109975 0.14344133 -0.013457553 0.13230744 0.08670995
-0.12340924 -0.2440284 0.030800551 -0.16630822 0.018912662 0.16107789 -0.03942665 0.24895163
0.2115473 -0.030307895 0.04099547 0.0788644 0.34171903 0.25503713 -0.00021409987 -0.0077485247
0.18772636 0.1596636 0.048087705 0.0024735131 0.191721 -0.051999394 0.26418346 -0.07879758
-0.030547425 -0.04388747 0.10020498 0.07118577 -0.027435662 0.05740268 0.009544473 -0.064200275
-0.07104215 0.1242578 -0.042632464 0.033937324 0.06513733 0.08665695 -0.119518094 0.146862
0.051185306 -0.13651158 0.22380544 -0.034877554 -0.013976657 -0.026247002 0.090395756 -0.06839378
00000000: 4226 eb3d af50 b7bd 1003 05be 6696 8d3e
00000010: a23a 2c3d 1070 94be ea59 59bd 4071 c63d
00000020: 199e 9dbd 33b9 3c3c 2e35 b53d 67c4 203e
00000030: 2160 f33d 8806 253d 1a33 cb3d 5bf0 d8bb
00000040: 7519 0cbe bf6c 913e f6ac 79bd e499 0c3e
00000050: d326 6a3e d0f5 b83d cdca d23b 9826 03be
00000060: 2c72 be3d c2a0 6b3e 71df 173e 6298 453e
00000070: 1760 e03d ab84 1bbe 71f7 1c3d f985 cd3d
00000080: 5dd4 e9bd 4a78 d93d 4bd9 ae3d d303 1cbd
00000090: 7f63 4c3e 34ff 133e c51c 1dbe 56a8 053e
000000a0: 3c0f 53bd 952f b7bd 453e e73c ff10 a8bc
000000b0: cf45 4d3c 12ca 31b9 929c 793d 900e 76be
000000c0: 8d76 95bd ea41 a0bc 45c9 9cbd b03a 893d
000000d0: b492 6f3e a399 edbd 3c36 823d ab73 ca3b
000000e0: 4c9d 68bd 5a09 683e 173b 4abe 2f26 39bd
000000f0: 4ef0 10be 4415 85be e614 5dbd 3fef c5bc
00000100: a868 613c c342 d5bc 5b39 24be 6fc6 3ebb
00000110: 49e2 123e 127d 5cbc 9a7b 073e fc94 b13d
00000120: fcbd fcbd 95e2 79be 7051 fc3c b44c 2abe
00000130: baee 9a3c 9af1 243e d77d 21bd 2ded 7e3e
00000140: db9f 583e 4348 f8bc deea 273d a983 a13d
00000150: ccf5 ae3e 3a94 823e ff7f 60b9 56e7 fdbb
00000160: 573b 403e db7e 233e 9df7 443d aa1a 223b
00000170: 8352 443e 51fd 54bd 0e43 873e a060 a1bd
00000180: 983e fabc 59c3 33bd 4538 cd3d d8c9 913d
00000190: c1c0 e0bc 131f 6b3d 6c60 1c3c 6f7b 83bd
000001a0: 8c7e 91bd e07a fe3d 619f 2ebd dd01 0b3d
000001b0: b866 853d 3379 b13d e7c5 f4bd fe62 163e
000001c0: afa7 513d b1c9 0bbe 412d 653e c4db 0ebd
000001d0: 59fe 64bc f403 d7bc 6921 b93d 0a12 8cbd

fc2.weight f4 [84, 120]
0.09402252 0.065697104 -0.044713072 0.06185733 -0.019053984 -0.029090328 0.0038989692 -0.08864189
-0.008646098 -0.04756082 -0.07827625 0.024525722 -0.053251483 0.012029454 -0.07368481 0.008925021
0.054290626 0.021540713 0.044775214 0.057912685 -0.019609945 -0.083827294 0.0026682555 -0.013891914
0.009754721 0.0120560415 0.04947472 -0.104297884 0.06512106 -0.013414742 -0.012629354 -0.015644511
0.085566424 0.07639979 -0.034125164 0.061210606 0.07220607 -0.014116227 0.05013849 -0.053660333
-0.10965492 -0.039863706 -0.062975034 -0.08087311 0.08196623 0.05202446 -0.031933796 -0.013525553
0.015630871 -0.00861445 -0.072220944 6.831635e-05 0.08176542 -0.03286123 0.066750586 -0.08062026
-0.060155906 -0.020423336 0.081276566 -0.07160666 -0.023020975 0.023727752 0.033852194 0.06341782
0.04530512 0.03500132 0.1213125 0.009703502 0.0013045352 0.058760304 0.023730544 -0.058176372
-0.056570124 0.0091847675 -0.044999287 0.059003163 0.04621792 0.047059335 0.038230903 -0.017283136
-0.0692202 0.022121495 -0.08955533 -0.03001453 -0.007644311 -0.10635603 -0.026216716 0.050498355
-0.08633988 -0.068592325 0.0005019107 0.041700106 -0.03154461 0.15196322 -0.07821968 0.026540477
0.01781934 -0.008398163 -0.05931036 -0.025733884 0.022749318 0.056378685 -0.028437108 -0.047263917
0.031931292 -0.07347681 -0.08509396 -0.036036503 0.01647083 -0.01961708 -0.018211052 0.072885975
-0.0056679477 0.06529831 -0.03814998 0.05434612 -0.08743926 0.048452307 -0.121803716 -0.008150931
-0.030980516 0.002641238 0.057543125 -0.1162973 -0.02065881 -0.0035735278 -0.008549264 0.0006861053
0.020964986 0.15749556 0.16440581 -0.037806496 0.0034186048 0.029906925 -0.044855736 -0.018592952
-0.04244303 -0.06666875 0.12713785 0.081093825 -0.13286401 -0.029484767 -0.086210616 0.09625388
0.03260363 -0.004694739 0.11094571 -0.04100197 0.013931733 -0.17294316 -0.07145558 0.043920543
-0.13926826 0.07463273 0.22336446 -0.02621921 0.030152187 0.034696676 -0.012761287 0.023910293
-0.02837809 0.07109946 -0.021724015 -0.056692194 -0.10121495 0.0807957 -0.21006903 0.20478667
0.1015206 0.017956039 -0.070696026 0.08358814 0.06963042 -0.032714777 -0.10650489 0.055908535
0.058419947 -0.063348345 -0.023931805 0.01684359 -0.06534189 0.058507152 -0.044692446 0.08599828
-0.1826118 0.032563806 0.07682606 -0.006551629 -0.08695385 -0.0775242 -0.07015042 0.031341825
-0.06139351 0.11477936 0.079893954 0.09258178 -0.12480893 0.024650864 0.039906256 -0.112025715
0.0030882652 0.115981825 -0.16379377 0.022657113 -0.07007945 -0.17479068 -0.06411159 0.010451795
-0.1632106 -0.01771572 0.07674459 -0.020503866 0.0862923 -0.09514743 0.06593175 -0.031525046
-0.08012377 -0.034680776 0.104394555 -0.042913035 -0.028105397 0.027633892 -0.025583562 0.028868016
-0.06821728 0.12694994 0.026687294 0.17600058 -0.016345812 -0.036889285 -0.09604085 -0.10104695
0.0047893114 -0.1448947 0.060003832 0.01205266 -0.04294545 -0.053162884 0.05499296 -0.065457664
0.08157989 -0.10798992 -0.012226775 -0.05398121 -0.0014016817 -0.102417074 0.08314954 -0.095777065
-0.018202417 -0.124274515 -0.059352595 0.0135826515 0.08953355 -0.038799524 -0.21058936 0.13017683
00000000: e18e c03d 348c 863d 0e25 37bd 1d5e 7d3d
00000010: 1a17 9cbc d74e eebc d985 7f3b e189 b5bd
00000020: 5da8 0dbc 22cf 42bd 4c4f a0bd 2bea c83c
00000030: 3a1e 5abd 3017 453c 10e8 96bd 403a 123c
00000040: d95f 5e3d 2676 b03c 3766 373d da35 6d3d
00000050: 09a5 a0bc a5ad abbd e6dd 2e3b e99a 63bc
00000060: 44d2 1f3c b486 453c 01a6 4a3d 219a d5bd
00000070: 315e 853d 82c9 5bbc 5aeb 4ebc eb28 80bc
00000080: 733d af3d 7e77 9c3d d4c6 0bbd f9b7 7a3d
00000090: c7e0 933d bf47 67bc 045e 4d3d f0ca 5bbd
000000a0: c292 e0bd 2048 23bd 0ef9 80bd cda0 a5bd
000000b0: e9dd a73d 9a17 553d 03cd 02bd 489a 5dbc
000000c0: 500c 803c 9f23 0dbc 93e8 93bd 1045 8f38
000000d0: a174 a73d 7f99 06bd 88b4 883d 3c1c a5bd
000000e0: 0a66 76bd d74e a7bc 5474 a63d 83a6 92bd
000000f0: 7c96 bcbc b460 c23c 99a8 0a3d 34e1 813d
00000100: dd91 393d 8b5d 0f3d b072 f83d 70fb 1e3c
00000110: f0fc aa3a a5ae 703d 8f66 c23c 594a 6ebd
00000120: 13b6 67bd b57b 163c 2c51 38bd 4dad 713d
00000130: 004f 3d3d 4ac1 403d 0298 1c3d 5d95 8dbc
00000140: 52c3 8dbd 2338 b53c c968 b7bd 08e1 f5bc
00000150: 217d fabb 31d1 d9bd 70c4 d6bc 5dd7 4e3d
00000160: f7d2 b0bd 227a 8cbd a892 033a bbcd 2a3d
00000170: ec34 01bd 3f9c 1b3e a431 a0bd 6a6b d93c
00000180: ddf9 913c 7398 09bc 6cef 72bd decf d2bc
00000190: c75c ba3c 56ed 663d f0f4 e8bc cf97 41bd
000001a0: 63ca 023d 027b 96bd be45 aebd 039b 13bd
000001b0: d6ed 863c 00b4 a0bc 582f 95bc 3e45 953d
000001c0: 31ba b9bb 1fbb 853d 2743 1cbd 0a9a 5e3d
000001d0: 5b13 b3bd ed75 463d 3a74 f9bd 7c8b 05bc
000001e0: daca fdbc 9f18 2d3b 57b2 6b3d 472d eebd
000001f0: aa3c a9bc d931 6abb 3612 0cbc bfdb 333a
00000200: c3be ab3c 8446 213e ff59 283e fcda 1abd
00000210: ac0a 603b 5eff f43c a6ba 37bd 3f50 98bc
00000220: bed8 2dbd a089 88bd 6d30 023e 8514 a63d
00000230: 810d 08be 0a8a f1bc 318f b0bd c120 c53d
00000240: 628b 053d 53d6 99bb 8137 e33d aff1 27bd
00000250: ec41 643c 0318 31be 4e57 92bd 07e6 333d
00000260: 579c 0ebe 0bd9 983d a7b9 643e abc9 d6bc
00000270: b801 f73c 1a1e 0e3d b814 51bc 85df c33c
00000280: 2b79 e8bc 989c 913d 90f6 b1bc 1336 68bd
00000290: c949 cfbd 3778 a53d 561c 57be 99b3 513e
000002a0: 08ea cf3d 8b18 933c 14c9 90bd 4230 ab3d
000002b0: 659a 8e3d eeff 05bd 3c1f dabd 5900 653d
000002c0: c149 6f3d c7bc 81bd a20c c4bc 92fb 893c
000002d0: f8d1 85bd 32a5 6f3d 6d0f 37bd de1f b03d
000002e0: 96fe 3abe a061 053d fb56 9d3d 0caf d6bb
000002f0: dc14 b2bd 02c5 9ebd 06ab 8fbd 4960 003d
00000300: c377 7bbd 7111 eb3d 719f a33d 849b bd3d
00000310: d39b ffbd 9cf0 c93c be74 233d bd6d e5bd
00000320: 7e64 4a3b e187 ed3d 8eb9 27be 699b b93c
00000330: d185 8fbd 54fc 32be f04c 83bd 013e 2b3c
00000340: ae20 27be 8f20 91bc 452c 9d3d b9f7 a7bc
00000350: 04ba b03d a8dc c2bd 3a07 873d 6820 01bd
00000360: ee17 a4bd 6e0d 0ebd d0cc d53d 94c5 2fbd
00000370: 4a3d e6bc 7960 e23c 9e94 d1bc 9e7c ec3c
00000380: 80b5 8bbd 2aff 013e 509f da3c 7f39 343e
00000390: a7e7 85bc 3819 17bd 11b1 c4bd b4f1 cebd
000003a0: a8ef 9c3b 475f 14be 94c6 753d 8578 453c
000003b0: 91e7 2fbd 53c1 59bd 4c40 613d ab0e 86bd
000003c0: 5b13 a73d d229 ddbd d052 48bc 671b 5dbd
000003d0: a2b8 b7ba 0bc0 d1bd 4e4a aa3d c426 c4bd
000003e0: 3c1d 95bc a383 febd b51b 73bd c589 5e3c
000003f0: 5e5d b73d 40ec 1ebd bda4 57be 134d 053e

fc2.bias f4 [84]
-0.1007073 -0.047764618 -0.23241061 0.45335144 -0.009863741 0.06251624 -0.07545599 -0.0018437285
-0.053907845 0.2584134 0.08001563 0.028712733 0.12400649 0.38639325 0.0036982822 -0.034988903
0.5115236 0.09305679 0.13398555 -0.010539718 0.17855015 0.31890133 0.42764974 0.023858316
-0.09367254 0.43762648 0.50487345 0.0730273 -0.05337542 -0.014772731 0.008902868 -0.046588816
-0.019860607 -0.032550506 0.34349984 0.20842265 0.3592347 -0.063216485 0.40499294 0.03184268
-0.12445055 -0.101947136 0.013868628 -0.137137 0.11127654 0.5724442 0.0901136 0.42800298
0.16604978 0.25706893 0.12282773 -0.13448177 0.13485956 0.49828207 -0.054898832 0.17137206
0.04835527 -0.115329504 0.11772884 -0.12089695 -0.19759066 0.002273389 0.5126853 0.2606673
0.07821014 0.18661727 0.20828578 0.43239674 -0.19438936 -0.06778573 0.36510724 0.015159237
0.086854205 -0.069900066 0.5206384 0.47542775 -0.02562434 0.23770076 0.13618338 0.48225594
0.003623572 0.21719742 0.044473596 -0.073397495
00000000: a13f cebd d5a4 43bd 0cfd 6dbe ae1d e83e
00000010: 879b 21bc 8408 803d ac88 9abd 43a9 f1ba
00000020: 79ce 5cbd c34e 843e 3cdf a33d f736 eb3c
00000030: 1df7 fd3d 56d5 c53e e15e 723b 8650 0fbd
00000040: 36f3 023f 8f94 be3d 8233 093e c8ae 2cbc
00000050: dad5 363e 0947 a33e e8f4 da3e 8472 c33c
00000060: 63d7 bfbd 9410 e03e 633f 013f 568f 953d
00000070: 2fa0 5abd 5309 72bc 56dd 113c ead3 3ebd
00000080: b6b2 a2bc ae53 05bd 36df af3e bf6c 553e
00000090: 9ced b73e a577 81bd 3c5b cf3e 786d 023d
000000a0: eedf febd a9c9 d0bd 3e39 633c a46d 0cbe
000000b0: f4e4 e33d b48b 123f 7b8d b83d 3523 db3e
000000c0: f408 2a3e 8a9e 833e 1b8d fb3d 97b5 09be
000000d0: a018 0a3e d41e ff3e 99dd 60bd 287c 2f3e
000000e0: 2d10 463d e031 ecbd d11b f13d d298 f7bd
000000f0: 3555 4abe 23fd 143b 583f 033f 2f76 853e
00000100: a32c a03d 9918 3f3e de48 553e 1b63 dd3e
00000110: 010e 47be 3fd3 8abd 56ef ba3e 735e 783c
00000120: 9ee0 b13d c427 8fbd 8f48 053f 446b f33e
00000130: 23ea d1bc d467 733e a873 0b3e 40ea f63e
00000140: 7379 6d3b 0069 5e3e f229 363d 6d51 96bd

fc3.weight f4 [10, 84]
0.13102289 0.07547094 0.2847559 0.31969 -0.043609444 0.2010374 0.23075885 0.120441034
0.13734283 0.307827 0.19653782 0.1349675 -0.11653167 -0.120475166 -0.07519736 0.16160567
-0.14218728 -0.119816065 0.07207677 -0.043269493 -0.32247972 -0.14340626 -0.27218252 0.01125641
-0.005928044 0.10344 0.2978431 -0.15531619 -0.12247208 -0.20140539 0.2724986 -0.039394896
0.040557444 0.13665254 -0.06359755 0.079768404 0.10104816 -0.02497854 -0.11772557 -0.076084614
-0.022251178 0.18836038 -0.103652224 0.30417275 0.082068324 -0.3994289 0.15943682 -0.25004008
0.15368123 0.1362303 -0.031610522 -0.021368532 0.117364496 0.14867981 -0.06749917 0.15928693
0.019858984 -0.013028103 0.03164707 -0.22848144 0.18875703 0.05359431 -0.1960136 0.23607533
0.17783877 -0.020918481 -0.2841011 -0.16445836 -0.059353933 0.01737796 -0.20155244 0.32306862
-0.015688485 -0.099597424 -0.31544024 -0.17438623 0.06410091 -0.08908813 -0.058407392 0.13546276
0.16930927 0.03467515 0.09015777 -0.081607506 -0.029732917 -0.15591829 0.03997294 0.0694363
-0.09062069 -0.19506027 -0.05860951 -0.024436088 0.12639235 0.17020014 -0.09812087 0.045281425
0.05825822 -0.17417681 -0.05116372 -0.005240372 -0.23276411 0.22031738 0.0007640983 0.2289862
0.14624158 -0.070879 -0.22465502 0.33387202 0.0036572563 -0.08935106 -0.37667614 0.018189484
-0.03740693 -0.12028253 0.33015344 0.058864836 0.011799956 -0.15261525 -0.07433881 0.22690435
0.0185825 0.07457777 -0.2912109 -0.048505627 -0.08748459 0.09800248 0.11617622 -0.101778574
0.14075984 -0.041159615 -0.27007312 -0.37417972 0.29461625 -0.19119297 0.5092946 0.30428773
0.23980829 0.18433541 0.09608027 0.0614164 -0.35872546 -0.12494628 -0.18615136 0.14073534
0.06794966 -0.28035128 -0.2124753 0.055475798 -0.047155518 -0.13678804 -0.016768387 -0.11107634
0.21008009 0.02491291 -0.13291232 -0.10017714 -0.12327803 -0.067704365 -0.15518947 -0.24802794
0.0611806 -0.25199613 0.26449832 -0.36013448 0.0024472757 -0.19977598 -0.1134628 0.13190576
0.0005711244 0.2215109 -0.16883866 0.10531125 0.060630396 0.25104266 -0.17457874 0.008620252
0.14759783 -0.030665992 -0.06925237 -0.1055776 0.2555439 0.04230346 -0.15817513 -0.093925714
0.27310675 -0.0016522353 -0.021866523 -0.19149508 -0.14673184 0.03232795 -0.05330079 -0.059668828
-0.09854376 0.28769982 0.05156114 0.14593838 -0.07111356 0.007447194 -0.04901201 0.029084332
0.02893901 0.016509596 0.012963594 -0.3168137 -0.15342654 0.08711832 0.2684542 -0.097126715
-0.022826811 -0.1488573 -0.23905058 0.032436945 0.0049764114 0.30947945 -0.029606687 0.21743225
0.2185199 -0.08671206 -0.20167838 0.17032245 -0.15979868 0.05650079 0.12171743 0.028963594
0.2828144 0.19021016 0.033651702 0.07228118 0.034015436 0.055135474 -0.043826215 -0.051252715
-0.11284926 0.10271312 -0.16262335 0.24254145 0.023659617 0.009909696 -0.0973707 0.3066095
0.23025195 0.014016257 0.12521201 -0.16211846 -0.10374341 0.29210865 -0.09160196 0.27043393
-0.13209613 -0.29891884 -0.025316263 -0.072273396 0.037946872 -0.12823226 -0.008058413 -0.23414943
00000000: dd2a 063e 8290 9a3d 86cb 913e 68ae a33e
00000010: d19f 32bd c0dc 4d3e 0c4c 6c3e caa9 f63d
00000020: 99a3 0c3e 809b 9d3e 3641 493e ec34 0a3e
00000030: 28a8 eebd afbb f6bd 1301 9abd f57b 253e
00000040: 8b99 11be 2062 f5bd fc9c 933d 5a3b 31bd
00000050: 101c a5be 17d9 12be 825b 8bbe ce6c 383c
00000060: 0a40 c2bb 5ad8 d33d e47e 983e 350b 1fbe
00000070: a4d2 fabd 373d 4ebe f084 8b3e 8b5c 21bd
00000080: 901f 263d a5ee 0b3e 6f3f 82bd 9e5d a33d
00000090: 56f2 ce3d cc9f ccbc 1b1a f1bd 40d2 9bbd
000000a0: 1a48 b6bc 8be1 403e 9e47 d4bd 88bc 9b3e
000000b0: 7013 a83d f281 ccbe 6843 233e 4105 80be
000000c0: 9d5e 1d3e f57f 0b3e 097a 01bd 0f0d afbc
000000d0: cc5c f03d 853f 183e 013d 8abd 1d1c 233e
000000e0: 4faf a23c d373 55bc 5ca0 013d 0af7 69be
000000f0: 8649 413e b585 5b3d cab7 48be bbbd 713e
00000100: 5e1b 363e 3c5d abbc b375 91be c667 28be
00000110: 1c1d 73bd 395c 8e3c c363 4ebe 4069 a53e
00000120: 2385 80bc bcf9 cbbd 6281 a1be 4e92 32be
00000130: 5747 833d d673 b6bd 973c 6fbd c0b6 0a3e
00000140: 695f 2d3e 8807 0e3d a3a4 b83d d621 a7bd
00000150: 7292 f3bc 0ba9 1fbe aaba 233d 9e34 8e3d
00000160: 5797 b9bd e1bd 47be 8710 70bd 312e c8bc
00000170: ff6c 013e f248 2e3e 98f3 c8bd 0479 393d
00000180: 2ca0 6e3d 685b 32be 0d91 51bd 6db7 abbb
00000190: b759 6ebe e19a 613e c54d 483a 5c7b 6a3e
000001a0: 5ac0 153e 0229 91bd f70b 66be 46f1 aa3e
000001b0: 94ae 6f3b b0fd b6bd b2db c0be 1d02 953c
000001c0: 0238 19bd b056 f6bd df09 a93e 411c 713d
000001d0: 9a54 413c 2c47 1cbe f23e 98bd 9d59 683e
000001e0: 543a 983c 3bbc 983d 9819 95be d6ad 46bd
000001f0: 1f2b b3bd 86b5 c83d cced ed3d 4971 d0bd
00000200: 5923 103e fc96 28bd 0647 8abe 7c94 bfbe
00000210: f1d7 963e 17c8 43be 2261 023f 9acb 9b3e
00000220: 4e90 753e 6cc2 3c3e bcc5 c43d c38f 7b3d
00000230: ddaa b7be d6e3 ffbd 769e 3ebe ed1c 103e
00000240: 3129 8b3d 348a 8fbe 2093 59be 973a 633d
00000250: 2526 41bd 2a12 0cbe db5d 89bc fe7b e3bd
00000260: 3c1f 573e 2916 cc3c 2b1a 08be ac29 cdbd
00000270: 3179 fcbd 96a8 8abd fde9 1ebe 09fb 7dbe
00000280: 8298 7a3d a305 81be 536c 873e 8c63 b8be
00000290: 7962 203b 1392 4cbe 2f5f e8bd 4e12 073e
000002a0: 82b7 153a c1d3 623e 0be4 2cbe 6dad d73d
000002b0: 9457 783d aa88 803e c5c4 32be f53b 0d3c
000002c0: e323 173e 3f37 fbbc 30d4 8dbd 1239 d8bd
000002d0: a6d6 823e 6546 2d3d a9f8 21be 205c c0bd
000002e0: a6d4 8b3e d18f d8ba 6c21 b3bc 4917 44be
000002f0: df40 16be 506a 043d ee51 5abd 4d67 74bd
00000300: 50d1 c9bd 644d 933e c631 533d df70 153e
00000310: fca3 91bd 9707 f43b d1c0 48bd 4442 ee3c
00000320: 8111 ed3c 223f 873c 4165 543c 6835 a2be
00000330: d91b 1dbe 176b b23d d472 893e 5fea c6bd
00000340: 4bff babc 0c6e 18be adc9 74be 9adc 043d
00000350: 2a11 a33b 1774 9e3e b989 f2bc 8fa6 5e3e
00000360: aec3 5f3e 1896 b1bd c784 4ebe 0269 2e3e
00000370: 44a2 23be 5f6d 673d fd46 f93d 0f45 ed3c
00000380: 0dcd 903e 74c6 423e 5ed6 093d 2808 943d
00000390: c553 0b3d bcd5 613d 1e83 33bd 5eee 51bd
000003a0: 831d e7bd 425b d23d bc86 26be c95c 783e
000003b0: d0d1 c13c 475c 223c 4a6a c7bd ecfb 9c3e
000003c0: 2bc7 6b3e 71a4 653c 9437 003e 6202 26be
000003d0: 6d77 d4bd 448f 953e cf99 bbbd 5176 8a3e
000003e0: 3544 07be e40b 99be 0d64 cfbc 1304 94bd
000003f0: 2e6e 1b3d 514f 03be 6f07 04bc dec4 6fbe

fc3.bias f4 [10]
-0.3277222 -0.76991284 -0.0865042 0.556564 0.6838691 -0.039896097 0.045885276 -0.37861866
0.5526577 -0.15308054
00000000: 34cb a7be 0219 45bf 1d29 b1bd fa7a 0e3f
00000010: 0c12 2f3f 176a 23bd 33f2 3b3d 4eda c1be
00000020: fa7a 0d3f 25c1 1cbe

momentum_buffer f4 [6, 3, 5, 5]
-0.33679703 -0.3350954 -0.2913796 -0.3682568 -0.41015717 -0.12334564 -0.17702009 -0.23423037
-0.2578276 -0.21704534 -0.070492834 -0.040362805 -0.006575711 -0.11748625 -0.09196467 -0.03533569
0.07522677 0.23844309 -0.010498434 -0.088428825 0.18391536 0.24549152 0.36187822 0.16323473
0.07671939 0.18681881 0.24815014 0.23015559 0.048659295 -0.056059256 0.22429925 0.18684995
0.039783448 -0.069232374 -0.08024779 0.060860187 0.0841863 0.12787707 0.0053232685 0.009372503
-0.048859447 0.062104672 0.23714352 -0.0030573308 -0.10018466 0.029561207 0.07412498 0.17656653
0.020636074 -0.04545008 0.14566803 0.20491046 0.15313269 -0.005235061 -0.08040419 0.19992357
0.19961172 0.042730056 -0.06046611 -0.057200983 0.04573998 0.10128991 0.16814913 0.056670025
0.05558448 -0.046715543 0.08395162 0.30016142 0.10128641 0.01208251 0.043608755 0.13651694
0.28126413 0.15962042 0.114870116 0.5833562 0.5171435 0.38217705 0.32709593 0.21337858
0.45597616 0.44602972 0.24229804 0.16498055 0.10574876 0.37763554 0.40959665 0.2571833
0.10583329 0.05952609 0.41704005 0.40316555 0.28106242 0.14464189 0.08307968 0.4818856
0.4697619 0.3350377 0.18060276 0.12764114 0.6515949 0.54557127 0.3742471 0.32582223
0.24295008 0.49881357 0.4611195 0.22315338 0.15533811 0.124018684 0.39818844 0.4281287
0.22916363 0.059974447 0.040123083 0.4215058 0.4091367 0.25318873 0.08813035 0.0361092
0.49727213 0.46730867 0.3195574 0.16448349 0.09982711 0.72645336 0.62352127 0.46884608
0.41681832 0.32423884 0.57444906 0.5315851 0.3116781 0.23558284 0.18161814 0.46186885
0.4919926 0.30377954 0.13045196 0.06919201 0.4760264 0.4616681 0.31776088 0.15248913
0.0753053 0.5505749 0.5296067 0.37984738 0.22089101 0.13092247 -0.35366485 -0.29371312
-0.0825018 0.07590303 -0.052751884 -0.4043519 -0.24858984 -0.09696016 0.069493905 0.06037888
-0.29979038 -0.1880399 -0.10497132 0.049073547 0.1069375 -0.26453796 -0.15278691 -0.034254402
-0.090695694 -0.08328572 -0.2651416 -0.152065 -0.12979388 -0.1745244 -0.047665507 -0.22335026
-0.21398816 -0.02776049 0.040079206 -0.08809203 -0.20948634 -0.095608786 0.033966124 0.12498708
0.09571111 -0.06056679 0.0077607334 0.102801755 0.16641131 0.16295296 -0.05952069 0.021848887
0.16114935 0.086784065 0.046127945 -0.111450076 -0.020721138 0.05193317 0.03565198 0.16357213
-0.017673373 0.03615129 0.25980762 0.30365735 0.1470772 -0.012980029 0.11202961 0.28531134
0.34575504 0.2820919 0.12587953 0.19138241 0.2666475 0.32689318 0.32399392 0.09117286
0.17250526 0.28225303 0.2181313 0.21557629 -0.02969578 0.0771541 0.14004877 0.13178939
0.28752673 -0.42100137 -0.40687388 -0.4045177 -0.36329937 -0.3435653 -0.52286994 -0.6178858
-0.57698184 -0.5125114 -0.37013447 -0.4977533 -0.5134409 -0.42559367 -0.38042897 -0.24092886
-0.33102867 -0.3801763 -0.3871007 -0.38799766 -0.28881168 -0.33651748 -0.3995359 -0.43583792
-0.42671287 -0.3308086 -0.29509622 -0.22941433 -0.2126376 -0.15462713 -0.0541505 -0.26166746
00000000: a970 acbe a091 abbe b52f 95be 288c bcbe
00000010: 1f00 d2be a49c fcbd c144 35be 16da 6fbe
00000020: fb01 84be 2241 5ebe 8c5e 90bd 7853 25bd
00000030: 1079 d7bb a29c f0bd f957 bcbd 28bc 10bd
00000040: 7e10 9a3d 6d2a 743e a001 2cbc 2c1a b5bd
00000050: 4f54 3c3e 2162 7b3e 1a48 b93e 0127 273e
00000060: 0e1f 9d3d 6e4d 3f3e 121b 7e3e e8ad 6b3e
00000070: f84e 473d 649e 65bd b4ae 653e 9855 3f3e
00000080: f8f3 223d b4c9 8dbd f458 a4bd 8848 793d
00000090: de69 ac3d 35f2 023e d06e ae3b 208f 193c
000000a0: d820 48bd 7861 7e3d c0d5 723e 805d 48bb
000000b0: 9d2d cdbd 582a f23c d6ce 973d dbcd 343e
000000c0: fc0c a93c dd29 3abd 002a 153e 0cd4 513e
000000d0: d1ce 1c3e e08a abbb f4aa a4bd c4b8 4c3e
000000e0: 0467 4c3e b605 2f3d 50ab 77bd 944b 6abd
000000f0: d859 3b3d 1671 cf3d 492f 2c3e d41e 683d
00000100: 8dac 633d cc58 3fbd d4ee ab3d c2ae 993e
00000110: 406f cf3d b8f5 453c 189f 323d 19cb 0b3e
00000120: da01 903e 8973 233e 0641 eb3d d556 153f
00000130: 8463 043f b6ac c33e 1e79 a73e ea7f 5a3e
00000140: b575 e93e 025e e43e fa1c 783e a9f0 283e
00000150: ce92 d83d 7259 c13e a7b6 d13e 88ad 833e
00000160: 20bf d83d a1d1 733d 4686 d53e b76b ce3e
00000170: 6ae7 8f3e 011d 143e ae25 aa3d b6b9 f63e
00000180: a284 f03e 108a ab3e eeef 383e 5cb4 023e
00000190: ecce 263f 8faa 0b3f 519d bf3e 2cd2 a63e
000001a0: e8c7 783e 7e64 ff3e db17 ec3e 5282 643e
000001b0: f410 1f3e 82fd fd3d 5bdf cb3e af33 db3e
000001c0: dfa9 6a3e c4a7 753d 1a58 243d 9ccf d73e
000001d0: 5e7a d13e f4a1 813e af7d b43d 3ee7 133d
000001e0: 749a fe3e 1543 ef3e 079d a33e 5c6e 283e
000001f0: 2872 cc3d d9f8 393f 179f 1f3f 980c f03e
00000200: 3669 d53e a202 a63e 180f 133f f615 083f
00000210: 4694 9f3e a13c 713e 1bfa 393e 137a ec3e
00000220: 74e6 fb3e fe88 9b3e 3395 053e 8ab4 8d3d
00000230: bbb9 f33e c35f ec3e 8eb1 a23e 1c26 1c3e
00000240: aa39 9a3d 7af2 0c3f 4e94 073f 5b7b c23e
00000250: 4131 623e 8a10 063e 8f13 b5be 9161 96be
00000260: b4f6 a8bd 0c73 9b3d 5c12 58bd 3607 cfbe
00000270: 568e 7ebe 0c93 c6bd d252 8e3d d84f 773d
00000280: 207e 99be 888d 40be 34fb d6bd 5801 493d
00000290: 0c02 db3d 8571 87be 2c74 1cbe 584e 0cbd
000002a0: aabe b9bd b491 aabd a4c0 87be edb6 1bbe
000002b0: b0e8 04be 86b6 32be e83c 43bd eeb5 64be
000002c0: b61f 5bbe f869 e3bc 182a 243d 9869 b4bd
000002d0: 9683 56be 8ace c3bd 1020 0b3d 3af9 ff3d
000002e0: 3004 c43d e214 78bd c04d fe3b ba89 d23d
000002f0: ba67 2a3e 24dd 263e f8cb 73bd 70fc b23c
00000300: 5604 253e d8bb b13d a8f0 3c3d f03f e4bd
00000310: 60bf a9bc e0b7 543d d007 123d 747f 273e
00000320: c0c7 90bc 6013 143d 8105 853e fa78 9b3e
00000330: 689b 163e 30aa 54bc c86f e53d 5414 923e
00000340: ce06 b13e 596e 903e 90e6 003e c0f9 433e
00000350: 0586 883e 8b5e a73e 88e2 a53e d6b8 ba3d
00000360: 38a5 303e 7883 903e d05d 5f3e 08c0 5c3e
00000370: 9044 f3bc f802 9e3d f268 0f3e ccf3 063e
00000380: b436 933e 7e8d d7be c651 d0be f21c cfbe
00000390: 6002 babe cae7 afbe ceda 05bf c42d 1ebf
000003a0: 15b5 13bf f233 03bf 4482 bdbe 85d9 febe
000003b0: dd70 03bf 6ae7 d9be 96c7 c2be 0eb6 76be
000003c0: 977c a9be 78a6 c2be 1032 c6be a1a7 c6be
000003d0: 20df 93be 054c acbe f88f ccbe 2626 dfbe
000003e0: 1c7a dabe bf5f a9be da16 97be 97eb 6abe
000003f0: acbd 59be 9356 1ebe eacc 5dbd 47f9 85be

momentum_buffer f4 [6]
-0.590666 -1.0295051 0.4150333 -0.728946 -0.15461588 0.30445093
00000000: e335 17bf d3c6 83bf 3f7f d43e 349c 3abf
00000010: a053 1ebe fee0 9b3e

momentum_buffer f4 [16, 6, 5, 5]
0.086569004 -0.25090188 0.03747018 0.0526087 0.05219723 0.30851507 -0.24387135 -0.007619424
0.10906656 0.20876023 0.34420264 -0.15993905 0.015044898 0.041372135 0.21655646 0.3211137
-0.10588808 -0.01034264 0.14148308 0.10407159 0.24385566 -0.036724202 -0.15563805 0.13356704
-0.025154997 -0.1324544 -0.085189566 -0.142695 -0.14755338 -0.17031814 -0.10414727 -0.045022268
-0.14352342 -0.16139102 -0.15866834 -0.13928509 -0.07367783 -0.18671918 -0.19834147 -0.15490939
-0.11314337 -0.08540674 -0.17948654 -0.1512963 -0.13950872 -0.11624786 -0.013765272 -0.068018936
-0.10733018 -0.1461518 -0.06773948 -0.0041058585 0.032380387 0.084302925 0.01462318 0.022708545
0.15319867 0.080281414 0.08379708 0.022028707 0.0266169 0.25058687 0.082817085 0.063586794
0.12481841 0.17665333 0.28126213 0.088720426 0.084461905 -0.02343516 0.0827685 0.37122047
0.14944759 0.07790383 -0.071830094 0.05757496 0.064035505 0.094426945 0.15455492 0.10123045
0.05287506 -0.034543842 0.06923649 -0.0007910532 0.019629583 -0.016749635 0.008194992 0.038904198
-0.00722526 0.028227448 0.050954875 -0.015036492 -0.059022337 -0.0048687756 0.0042414777 0.048695717
0.081446424 0.031467453 0.06565787 0.029305886 0.0021905983 0.026766313 0.0960914 0.027016386
0.03162852 -0.07615692 -0.052843515 0.023142725 0.04060719 -0.036734074 -0.032030582 -0.12764111
-0.13074583 -0.064403035 -0.017433345 0.09800942 0.036495265 -0.06802869 -0.04241155 0.018143233
0.0020219265 -0.063562624 -0.06763771 -0.0052450486 0.029489722 -0.22077283 -0.19072603 -0.16656086
-0.112871766 -0.070783764 -0.193471 -0.04296793 -0.058449462 -0.10314984 -0.12302631 -0.1839146
0.005611554 -0.030395627 -0.099772766 -0.11363159 -0.2051149 -0.048134804 -0.0822707 -0.1286661
-0.10006216 -0.21007846 -0.10829064 -0.13261999 -0.16924526 -0.1465316 -0.2806655 -0.42884475
-0.20571977 -0.21155882 -0.35599667 -0.17487916 -0.2601111 -0.31421256 -0.45653212 -0.30068755
-0.18112351 -0.13249503 -0.3368625 -0.5346024 -0.35787886 -0.4124968 0.07942015 -0.29049715
-0.353899 -0.320251 -0.37035382 -0.032700494 -0.29911166 -0.36277825 -0.20259398 -0.23266129
-0.15400243 -0.2109912 -0.19974889 -0.121488005 -0.25727862 -0.1919806 -0.19502708 -0.14574942
-0.12677202 -0.32114583 -0.30717608 -0.23191565 -0.14119208 -0.11954214 -0.31457907 -0.36394632
-0.29268467 -0.20762756 -0.19556974 -0.30885276 -0.37585434 -0.28514966 -0.24467605 -0.23417339
-0.21510883 -0.32379246 -0.5235862 -0.3455627 -0.20443313 -0.20551446 -0.109350026 -0.4381248
-0.44942853 -0.048223253 -0.13560522 -0.03776808 -0.088508606 -0.1177723 -0.036346186 -0.030363142
0.05366735 -0.095961526 0.009798033 -0.113612734 0.012305623 -0.12469094 0.020563543 -0.17185396
-0.09851983 -0.046545986 0.01244323 0.0352879 0.16396038 0.08326849 -0.17639509 -0.064987935
-0.058104843 -0.19425572 -0.073296435 -0.33853495 -0.28720665 -0.33188418 -0.26444384 -0.249829
-0.2702492 -0.31337982 -0.24102229 -0.1731263 -0.222863 -0.19204417 -0.30121672 -0.29311395
-0.3026954 -0.24121426 -0.2873791 -0.32444295 -0.2396957 -0.1775986 -0.18393679 -0.021002417
00000000: 174b b13d 3676 80be 557a 193d 387c 573d
00000010: c3cc 553d b0f5 9d3e 69b9 79be 5cac f9bb
00000020: 4a5e df3d 3ec5 553e 543b b03e 10c7 23be
00000030: e07e 763c d475 293d fac0 5d3e 0469 a43e
00000040: dadb d8bd 2d74 29bc f1e0 103e 7c23 d53d
00000050: 4cb5 793e 1e6c 16bd 955f 1fbe ccc5 083e
00000060: da11 cebc 20a2 07be de77 aebd a31e 12be
00000070: 3c18 17be e167 2ebe 2a4b d5bd 4569 38bd
00000080: cef7 12be b043 25be f479 22be c0a0 0ebe
00000090: 67e4 96bd 5033 3fbe 071a 4bbe 91a0 1ebe
000000a0: b6b7 e7bd bbe9 aebd 52cb 37be 6bed 1abe
000000b0: 60db 0ebe 5c13 eebd bc87 61bc 834d 8bbd
000000c0: edcf dbbd d1a8 15be ffba 8abd 708a 86bb
000000d0: 4ca1 043d 03a7 ac3d 1096 6f3c 4507 ba3c
000000e0: 1de0 1c3e 956a a43d ce9d ab3d 8c75 b43c
000000f0: af0b da3c ec4c 803e 019c a93d cb39 823d
00000100: cba0 ff3d 9ce4 343e 9701 903e 0eb3 b53d
00000110: 5dfa ac3d 18fb bfbc 8882 a93d 9c10 be3e
00000120: ca08 193e 0b8c 9f3d a81b 93bd b9d3 6b3d
00000130: 0c25 833d ea62 c13d a543 1e3e e951 cf3d
00000140: 8593 583d d87d 0dbd dccb 8d3d ae5e 4fba
00000150: 38ce a03c 8836 89bc 4a44 063c 025a 1f3d
00000160: e0c1 ecbb 403d e73c 0fb6 503d 9e5b 76bc
00000170: 68c1 71bd 408a 9fbb 18fc 8a3b 2975 473d
00000180: 62cd a63d 04e4 003d a277 863d e612 f03c
00000190: 2490 0f3b 0745 db3c 91cb c43d 7851 dd3c
000001a0: e88c 013d 29f8 9bbd 7172 58bd d095 bd3c
000001b0: ba53 263d 7876 16bd 8032 03bd 5ab4 02be
000001c0: 3ce2 05be bde5 83bd 60d0 8ebc 2ab9 c83d
000001d0: 0f7c 153d a052 8bbd bcb7 2dbd 1ea1 943c
000001e0: 4c82 043b 1f2d 82bd a485 8abd a8de abbb
000001f0: 6e94 f13c 4612 62be af4d 43be ee8e 2abe
00000200: 5029 e7bd 14f7 90bd 431d 46be 24ff 2fbd
00000210: b468 6fbd 3940 d3bd 38f5 fbbd 1c54 3cbe
00000220: 20e1 b73b 4000 f9bc aa55 ccbd aeb7 e8bd
00000230: a409 52be 0029 45bd 8a7d a8bd 0cc1 03be
00000240: 64ed ccbd cf1e 57be 7cc7 ddbd 89cd 07be
00000250: a14e 2dbe 610c 16be 63b3 8fbe 8a91 dbbe
00000260: 34a8 52be e0a2 58be 3245 b6be 8613 33be
00000270: 482d 85be 78e0 a0be 94be e9be b8f3 99be
00000280: 7178 39be c7ac 07be 3e79 acbe b4db 08bf
00000290: e63b b7be c832 d3be 08a7 a23d 0bbc 94be
000002a0: 4032 b5be f0f7 a3be 049f bdbe f4f0 05bd
000002b0: 2a25 99be 12be b9be cc74 4fbe c33e 6ebe
000002c0: d0b2 1dbe 140e 58be f98a 4cbe b4ce f8bd
000002d0: 06ba 83be 9096 44be 2eb5 47be 563f 15be
000002e0: 86d0 01be 3a6d a4be 2f46 9dbe 4c7b 6dbe
000002f0: a894 10be 82d2 f4bd 8210 a1be 2c57 babe
00000300: c4da 95be 529c 54be 6f43 48be f321 9ebe
00000310: fb6f c0be 23ff 91be 5c8c 7abe 26cb 6fbe
00000320: 7d45 5cbe 20c8 a5be bf09 06bf 98ed b0be
00000330: eb56 51be 6272 52be e8f2 dfbd e551 e0be
00000340: 7f1b e6be bf85 45bd 18dc 0abe b4b2 1abd
00000350: 0044 b5bd 9b32 f1bd bddf 14bd 20bc f8bc
00000360: 4cd2 5b3d 7a87 c4bd ee87 203c cbad e8bd
00000370: 869d 493c f75d ffbd e074 a83c 7cfa 2fbe
00000380: c4c4 c9bd 01a7 3ebd b0de 4b3c 0c8a 103d
00000390: 3be5 273e ac88 aa3d eaa0 34be 6518 85bd
000003a0: 58ff 6dbd f9ea 46be 711c 96bd 7454 adbe
000003b0: c00c 93be b9ec a9be 2f65 87be 2cd3 7fbe
000003c0: 1a5e 8abe 5273 a0be 8cce 76be 0548 31be
000003d0: 3336 64be 3aa7 44be 1439 9abe 0813 96be
000003e0: e4fa 9abe df00 77be 5a23 93be 631d a6be
000003f0: ca72 75be 68dc 35be ed59 3cbe 430d acbc

momentum_buffer f4 [16]
0.073710606 -0.3065674 -0.21961051 0.13083665 0.11609865 -0.2959899 0.15676787 -0.21975993
-0.09320446 0.01892002 -0.06601252 -0.08050046 0.20729795 -0.051527657 0.43658772 0.3614143
00000000: 96f5 963d 67f6 9cbe 94e1 60be 0bfa 053e
00000010: 21c5 ed3d fd8b 97be c287 203e bf08 61be
00000020: fbe1 bebd 28fe 9a3c 9231 87bd 6ddd a4bd
00000030: ea45 543e aa0e 53bd 6d88 df3e 4c0b b93e
