tutorials/models/tutorial4_alice_model.pth (torch_old, 474857 bytes, 6 tensors)

weight f4 [128, 784]
-0.022276394 -0.0067737503 -0.004665781 -0.0140962815 -0.010372745 0.020495653 -0.03271908 -0.040297527
-0.009412909 0.017841667 0.0210738 -0.0077558714 0.009939147 0.0018642847 -0.014202952 -0.030187689
-0.038527604 0.027083881 0.0049731922 -0.03200807 0.025996983 -0.0127234645 -0.037519794 -0.027076136
-0.0016035632 -0.002222906 -0.03753444 0.010930852 -0.02955428 -0.034459103 0.0032959408 0.019183973
-0.001435488 -0.026342059 -0.001213673 -0.0066132294 -0.000748566 -0.03795248 0.022009395 -0.004145736
0.0031991713 0.017631989 -0.03335625 -0.01686475 0.016627682 0.019193469 -0.0147110745 0.0009955452
0.022314224 -0.010988476 -0.019191718 -0.038177513 -0.0014720557 0.0090041645 -0.03515555 -0.007304228
-0.021327205 -0.020585189 0.01441573 0.018756391 0.025740864 0.022790067 -0.025573771 -0.031164719
-0.010781936 -0.009410019 -0.032677017 0.03113626 -0.012556833 0.009219725 0.033550065 0.00783719
0.0056043095 0.0022996792 0.032262098 0.03646138 -0.024961863 -0.01050163 0.012114678 -0.03140475
-0.018205145 0.013804929 -0.029268315 0.013686859 -0.025873736 -0.025504103 -0.011189555 0.017887745
-0.00026828598 -0.010179528 -0.039578408 -0.013134066 -0.018196795 -0.010050242 0.03477581 -0.009880161
-0.010043229 0.010749872 -0.014079232 -0.012703202 0.012634531 0.005939909 0.02174772 0.035858333
0.036414728 -0.003083105 0.0110710915 0.025179861 0.019469181 -0.024975574 -0.028616956 -0.019670598
-0.014155352 -0.025504237 0.012005196 0.014965139 0.003206928 -0.03144588 0.015688432 -0.02293182
0.022218566 0.028067676 0.008500875 0.03443715 0.031007955 -0.013572359 0.014475141 0.028414255
0.028065275 0.028306544 0.03204807 0.00818289 -0.0338554 -0.0007792458 -0.00070870126 0.011284796
-0.039111964 0.019046638 -0.027664347 -0.02103832 -0.005215483 0.01060578 -0.009805609 -0.041211292
0.0035431387 -0.047194574 -0.008495365 -0.004817802 -0.045917228 -0.032493267 0.01363168 0.0028524077
-0.0064641815 0.0147630675 -0.022452543 0.009641024 0.05168429 0.025023052 0.031006131 0.04033416
0.029091097 0.024526948 0.024760306 -0.036942497 0.032958515 -0.018053137 0.018180864 0.007934735
-0.021202832 -0.025572505 -2.9389108e-05 -0.017229695 0.0068754507 -0.04704694 0.005593555 -0.012309749
0.010328931 -0.015836118 -0.033836275 -0.01585764 0.0024388721 -0.021947479 0.004452733 0.045641657
0.03440717 0.011724115 0.012767609 0.046521574 -0.0053552715 0.033575367 -0.01627225 -0.025951201
0.020880112 0.015943773 0.015888678 0.001989589 -0.037412383 0.0038792212 -0.034907386 -0.011612048
-0.003920601 -0.016378302 -0.016852163 -0.028472045 -0.031623024 -0.029188607 0.027167894 0.00010380893
0.005210523 0.022170192 0.05971977 0.046771407 0.032699272 0.05237888 0.03298128 0.03667197
0.030015897 0.037275188 0.027252927 -0.015223966 0.040217675 -0.030244932 0.012263799 -0.008894264
-0.03567511 0.0011802141 -0.0003363686 -0.026663 -0.0526664 -0.0042295144 -0.04528556 -0.032887574
-0.005170676 0.01882801 0.041905213 0.03288042 0.025631586 0.04839992 -0.0004992587 0.037466858
0.045680612 0.05623931 -0.02906879 0.0010623003 0.014475803 -0.0075591803 -0.02209009 -0.0020000718
-0.009821513 -0.020688277 -0.0064344686 -0.02159245 0.0034669845 -0.013349153 0.020270782 -0.041860044
00000000: fc7c b6bc 56f6 ddbb 68e3 98bb 17f4 66bc
00000010: 72f2 29bc 80e6 a73c 7104 06bd 050f 25bd
00000020: 9a38 1abc b028 923c f6a2 ac3c f724 febb
00000030: ced7 223c 045b f43a 80b3 68bc 2c4c f7bc
00000040: 1fcf 1dbd 04df dd3c 29f6 a23b e51a 03bd
00000050: a0f7 d43c 1476 50bc 5bae 19bd c6ce ddbc
00000060: a72e d2ba 2dae 11bb b7bd 19bd 5117 333c
00000070: d11b f2bc fd24 0dbd b600 583b b527 9d3c
00000080: fc26 bcba 4dcb d7bc 1c14 9fba cab3 d8bb
00000090: 6a3b 44ba 0f74 1bbd 0c4d b43c f4d8 87bb
000000a0: 30a9 513b f670 903c 90a0 08bd f227 8abc
000000b0: c736 883c 9f3b 9d3c b806 71bc f47c 823a
000000c0: 52cc b63c 0209 34bc f337 9dbc 0660 1cbd
000000d0: fef1 c0ba 3486 133c 44ff 0fbd 4e58 efbb
000000e0: 64b6 aebc 45a2 a8bc f42f 6c3c 01a7 993c
000000f0: 81de d23c 3cb2 ba3c 1680 d1bc 274d ffbc
00000100: b8a6 30bc 7b2c 1abc 56d8 05bd 7811 ff3c
00000110: 2dbb 4dbc 540e 173c cb6b 093d 8f67 003c
00000120: 5ba4 b73b 37b6 163b 4325 043d 8758 153d
00000130: d27c ccbc 070f 2cbc a47c 463c 44a2 00bd
00000140: f522 95bc 122e 623c 1bc4 efbc d93e 603c
00000150: 28f5 d3bc fbed d0bc 6554 37bc 5289 923c
00000160: bca8 8cb9 09c8 26bc f81c 22bd 4430 57bc
00000170: 7211 95bc c5a9 24bc 1471 0e3d 66e0 21bc
00000180: 5b8c 24bc 3b20 303c 94ac 66bc 1721 50bc
00000190: 1001 4f3c 91a3 c23b 4628 b23c 30e0 123d
000001a0: 9c27 153d eb0d 4abb 8663 353c ff45 ce3c
000001b0: d57d 9f3c 9399 ccbc 1b6e eabc 3c24 a1bc
000001c0: d9eb 67bc 43ee d0bc 71b1 443c 5830 753c
000001d0: 532b 523b 65cd 00bd 0785 803c 83db bbbc
000001e0: b603 b63c 2fee e53c 4147 0b3c f80d 0d3d
000001f0: 6504 fe3c 9a5e 5ebc 2429 6d3c 03c5 e83c
00000200: 26e9 e53c 20e3 e73c d644 033d 8711 063c
00000210: f6ab 0abd 4d46 4cba 23c8 39ba dde3 383c
00000220: de33 20bd b207 9c3c 57a0 e2bc 8e58 acbc
00000230: a4e6 aabb dec3 2d3c b4a7 20bc 2ccd 28bd
00000240: 0134 683b 194f 41bd 2530 0bbc a7de 9dbb
00000250: b413 3cbd a917 05bd 6957 5f3c 76ef 3a3b
00000260: 7cd1 d3bb cbe0 713c 65ee b7bc 63f5 1d3c
00000270: e8b2 533d 25fd cc3c 9200 fe3c 6f35 253d
00000280: 7450 ee3c bdec c83c 20d6 ca3c 0451 17bd
00000290: 82ff 063d 2ce4 93bc 09f0 943c b100 023c
000002a0: 90b1 adbc 6e7d d1bc a188 f6b7 4a25 8dbc
000002b0: 764b e13b 4bb4 40bd 244a b73b d4ae 49bc
000002c0: ad3a 293c bfba 81bc e897 0abd e2e7 81bc
000002d0: 7cd5 1f3b 33cb b3bc 3be8 913b bff2 3a3d
000002e0: 88ee 0c3d 8116 403c 3c2f 513c 688d 3e3d
000002f0: 467b afbb 5386 093d 624d 85bc 9d97 d4bc
00000300: c50c ab3c 849c 823c f928 823c c463 023b
00000310: ba3d 19bd 883a 7e3b 0cfb 0ebd 7640 3ebc
00000320: 6378 80bb ca2b 86bc 8c0d 8abc 353e e9bc
00000330: 2587 01bd f21c efbc 348f de3c ffb3 d938
00000340: 09bd aa3b 439e b53c b89c 743d 6093 3f3d
00000350: acef 053d 3d8b 563d 6117 073d 5935 163d
00000360: e6e3 f53c dead 183d 8841 df3c f16d 79bc
00000370: 4abb 243d 38c4 f7bc 1aee 483c 3fb9 11bc
00000380: 1020 12bd 6ab1 9a3a a15a b0b9 5d6c dabc
00000390: b9b8 57bd bd97 8abb 5a7d 39bd 1fb5 06bd
000003a0: c66e a9bb 333d 9a3c cda4 2b3d 9fad 063d
000003b0: 55f9 d13c ff3e 463d afe0 02ba d976 193d
000003c0: 981b 3b3d 315b 663d ac21 eebc e23c 8b3a
000003d0: eb2b 6d3c 00b3 f7bb 47f6 b4bc a313 03bb
000003e0: 69ea 20bc 767a a9bc 3cd8 d2bb a6e2 b0bc
000003f0: 5936 633b 68b6 5abc e90e a63c 7075 2bbd

bias f4 [128]
-0.012375508 0.02369771 0.021646097 0.0196931 0.03797483 -0.019064331 0.027921362 0.015669176
0.00033226013 0.0062580127 -0.028935019 -0.025255384 -0.028982494 -0.026891889 0.039529108 0.012587259
-0.024254898 0.033018682 0.007980913 -0.02186947 -0.024780046 0.034227178 -0.011542828 -0.007836652
-0.019582879 -0.0036231843 0.037127487 -0.032310374 -0.032796968 0.037624445 -0.010240663 0.03163038
0.0068751764 -0.014526605 -0.019143084 0.020996649 0.009261333 -0.0019930827 0.014068383 -0.020797271
-0.013674321 0.005957976 -0.00095912936 0.032877818 0.035469983 0.023049915 0.010487197 -0.011078207
0.020003803 0.017189024 0.026064318 0.022555076 -0.03010595 -0.022662565 0.03199854 0.0385434
0.007018625 0.027062705 -0.036234606 -0.012493462 -0.033907786 0.019380672 -0.020931179 0.015333907
0.0016065021 0.01883446 0.013123721 -0.016409967 -0.022309622 -0.0065944395 -0.012354983 -0.007272613
0.0018645105 0.029803267 0.020966161 0.045088142 0.014518504 -0.0272327 0.01619316 -0.020387944
0.0159896 0.0035359121 -0.0069651497 0.02552567 0.020886924 -0.01710492 -0.033687025 0.018014574
-0.0029854956 0.032962006 0.043277435 0.010542783 -0.031790476 0.053785305 0.030681262 -0.024052568
-0.0066008107 0.006958189 0.040264048 0.013654984 0.03315046 -0.025826504 -0.0067461287 -0.02626522
0.03611018 -0.00974269 0.041180283 0.03255491 -0.0034176921 -0.021212762 -0.014249598 0.023247814
0.040257808 0.021384753 0.03088621 -0.02389046 0.014272071 -0.007294597 -0.013007513 -0.027268315
0.010724568 0.0033967234 0.024571892 -0.028044531 0.031106003 0.025441092 0.0035845486 0.03570804
00000000: a5c2 4abc b321 c23c 2853 b13c 6d53 a13c
00000010: 7f8b 1b3d cd2c 9cbc 57bb e43c a55c 803c
00000020: 3333 ae39 0410 cd3b 2209 edbc 61e4 cebc
00000030: b26c edbc 614c dcbc 46e9 213d ca3a 4e3c
00000040: 35b2 c6bc 993e 073d 60c2 023c 9a27 b3bc
00000050: 86ff cabc cc31 0c3d 211e 3dbc 4d65 00bc
00000060: 466c a0bc f272 6dbb fe12 183d e257 04bd
00000070: 1d56 06bd 171c 1a3d 74c8 27bc db8e 013d
00000080: 2949 e13b ff00 6ebc f5d1 9cbc 2a01 ac3c
00000090: d9bc 173c 619e 02bb 137f 663c 0a5f aabc
000000a0: 420a 60bc 203b c33b 156e 7bba e4aa 063d
000000b0: f948 113d 2dd3 bc3c 7ed2 2b3c 5e81 35bc
000000c0: 04df a33c ffcf 8c3c d684 d53c 6cc5 b83c
000000d0: c1a0 f6bc d8a6 b9bc e710 033d afdf 1d3d
000000e0: 7efc e53b 9bb2 dd3c bd6a 14bd 61b1 4cbc
000000f0: e4e2 0abd 37c4 9e3c dd77 abbc 113b 7b3c
00000100: 4491 d23a ba4a 9a3c e004 573c 326e 86bc
00000110: abc2 b6bc 2b16 d8bb 8e6c 4abc 194f eebb
00000120: 9762 f43a fb25 f43c 3ac1 ab3c 58ae 383d
00000130: 05df 6d3c 1c17 dfbc 85a7 843c 9e04 a7bc
00000140: 9ffc 823c c3ba 673b e93b e4bb 361b d13c
00000150: 0e1b ab3c 9e1f 8cbc 68fb 09bd 4d93 933c
00000160: 4ea8 43bb 2b03 073d ae43 313d a3bb 2c3c
00000170: bb36 02bd fb4d 5c3d 4557 fb3c e409 c5bc
00000180: 9d4b d8bb 8501 e43b eaeb 243d 27b9 5f3c
00000190: c7c8 073d 1b92 d3bc a10e ddbb 292a d7bc
000001a0: 45e8 133d ce9f 1fbc a8ac 283d 4c58 053d
000001b0: 5cfb 5fbb 63c6 adbc 2577 69bc 3372 be3c
000001c0: 5fe5 243d 142f af3c 1405 fd3c edb5 c3bc
000001d0: 68d5 693c 8407 efbb 771d 55bc cd61 dfbc
000001e0: 19b6 2f3c 909b 5e3b fe4a c93c a5bd e5bc
000001f0: 04d2 fe3c d669 d03c bfea 6a3b 9842 123d

weight f4 [128, 128]
0.062738836 0.105621725 0.051393185 -0.05339013 0.10636437 -0.046193346 -0.012482707 -0.035133284
0.08999926 -0.111151434 0.06934476 -0.0799422 -0.008137755 -0.07161324 0.012681218 0.049295515
-0.07411096 -0.012520204 -0.01948742 0.045200042 -0.034080483 -0.059111446 -0.043555267 0.03996239
0.06367315 0.024853379 0.06291212 0.026377277 -0.035082918 0.0075370013 -0.066474706 -0.07861853
0.04108907 -0.074663915 -0.020133348 0.07502025 -0.006058676 0.027044047 0.0035453045 -0.032515243
0.027493289 -0.05911887 0.043347243 0.095920525 0.035912305 -0.0542463 -0.047112137 -0.06468867
0.10557415 0.049661495 -0.06801607 -0.06688705 -0.09149143 0.016513782 0.0006760706 0.07242671
-0.023825547 0.070228465 -0.043482553 -0.039853305 -0.072228685 -0.002991009 0.04907745 -0.022277363
-0.0959013 0.056455944 0.101751894 -0.01603404 -0.018485209 0.045537837 0.12163465 -0.027082136
0.041323256 0.07855034 -0.003558295 0.15136644 -0.08944006 0.07337457 -0.022016823 -0.06693561
0.037790067 -0.051934447 -0.14557762 -0.06523707 0.05605424 -0.08608575 -0.012020713 -0.0074689384
-0.010211143 0.013583446 0.10411343 0.027260259 0.01264618 0.04927693 -0.11163631 0.01242447
0.013182025 -0.025089104 0.04750511 0.10088674 0.03655086 0.061259802 -0.019289132 0.07391081
0.08543355 0.05983061 0.05575863 0.05734269 -0.076341264 -0.016458582 0.10207463 -0.01743444
0.059808295 0.056474067 0.094146416 -0.038388934 0.00476641 -0.04847218 0.06674906 -0.072774395
0.04424652 -0.058558904 -0.09776063 0.117368996 0.025685634 0.013641669 -0.08409607 0.045267623
-0.028532652 -0.047752317 0.07214787 0.09320687 -0.029618058 0.065090016 0.08783497 -0.07697928
-0.004945003 0.025880277 -0.03434827 -0.05008657 -0.04908811 -0.026325284 -0.07109327 0.079999655
-0.0121587245 -0.008677111 0.05310223 0.013923853 0.044596247 -0.025225714 -0.07724293 -0.07826147
0.005932852 0.039091624 0.0153510105 -0.04855345 -0.016252186 0.033487037 0.014774002 0.0171629
-0.07854974 0.10869575 -0.055517495 -0.048201133 0.0719133 0.08511715 0.05677308 0.054509994
0.055104572 -0.043687508 -0.026007043 0.026694922 -0.07126766 0.018619277 0.057110533 0.06473364
-0.09214824 -0.025641877 0.09881941 0.12362584 0.047824 0.08788564 0.09378563 0.06589935
-0.016050389 -0.08140019 0.08929018 -0.0019638727 -0.07770467 0.019049294 0.04686674 0.08616625
-0.04603473 0.0688206 -0.02979414 0.0029478644 0.003890703 0.08507578 -0.06724263 -0.06706241
0.0065392964 0.04272274 0.07763051 0.105545886 -0.03801224 -0.087470844 -0.075061135 0.028302386
0.064170286 0.04473741 -0.032117233 0.019792914 -0.048117533 0.09414564 -0.048474956 -0.044028357
0.020253476 0.05005608 -0.059278093 0.020288339 -0.07838628 0.08489724 -0.029704638 0.09384408
0.04880667 -0.090705365 0.014175454 0.09463048 -0.068583414 0.0937429 -0.013713086 0.02894749
0.078159586 0.00368884 0.033499315 -0.008186363 0.029024258 -0.03824735 -0.020574447 -0.03256112
-0.0072113127 0.010034899 0.017911073 -0.0066287247 -0.04851805 -0.021925535 -0.025752798 -0.057079848
0.041263092 -0.091995314 0.08586489 -0.037844438 -0.07697942 0.00451607 -0.037437245 0.06592185
00000000: 387d 803d 3450 d83d a981 523d 9caf 5abd
00000010: 90d5 d93d 3c35 3dbd 4584 4cbc ebe7 0fbd
00000020: 8851 b83d 5da3 e3bd a004 8e3d bcb8 a3bd
00000030: 3854 05bc f6a9 92bd e2c4 4f3c 18ea 493d
00000040: 7dc7 97bd 8b21 4dbc 15a4 9fbc ae23 393d
00000050: fa97 0bbd d81e 72bd 0267 32bd 9aaf 233d
00000060: 1267 823d 5099 cb3c 12d8 803d 2915 d83c
00000070: 1bb3 0fbd f3f8 f63b e423 88bd c002 a1bd
00000080: 034d 283d 65e9 98bd b1ee a4bc 38a4 993d
00000090: dc87 c6bb 7a8b dd3c 5758 683b b42e 05bd
000000a0: 9b39 e13c a126 72bd e18c 313d fb71 c43d
000000b0: c818 133d 5e31 5ebd a8f8 40bd 7e7b 84bd
000000c0: 4337 d83d da69 4b3d 024c 8bbd 14fc 88bd
000000d0: dc5f bbbd e947 873c 543a 313a 7454 943d
000000e0: cb2d c3bc f1d3 8f3d c31a 32bd 383d 23bd
000000f0: a2ec 93bd ce04 44bb 7005 493d 047f b6bc
00000100: e767 c4bd 593e 673d 4c63 d03d d259 83bc
00000110: 4b6e 97bc e285 3a3d 961b f93d 5bdb ddbc
00000120: 9342 293d 00df a03d 4932 69bb ceff 1a3e
00000130: 5a2c b7bd 6845 963d a05c b4bc 8915 89bd
00000140: c2c9 1a3d 37b9 54bd 4d12 15be 039b 85bd
00000150: 2199 653d ba4d b0bd 86f2 44bc ffbd f4bb
00000160: a34c 27bc 1a8d 5e3c 6c39 d53d e850 df3c
00000170: ec31 4f3c 9bd6 493d 94a1 e4bd 0190 4b3c
00000180: 6cf9 573c aa87 cdbc b894 423d b59d ce3d
00000190: 5bb6 153d 8feb 7a3d 3e04 9ebc 8d5e 973d
000001a0: c9f7 ae3d f110 753d 2963 643d 2be0 6a3d
000001b0: cf58 9cbd 26d4 86bc 810c d13d acd2 8ebc
000001c0: 8bf9 743d 5a51 673d d6cf c03d b73d 1dbd
000001d0: 8c2f 9c3b c48a 46bd bbb3 883d be0a 95bd
000001e0: d73b 353d 76db 6fbd ba36 c8bd 285f f03d
000001f0: ae6a d23c 4f81 5f3c 8f3a acbd 8b6a 393d
00000200: 4fbd e9bc ef97 43bd 43c2 933d 3ee3 be3d
00000210: 92a1 f2bc ea4d 853d d2e2 b33d 50a7 9dbd
00000220: b109 a2bb e002 d43c c6b0 0cbd 9327 4dbd
00000230: 9d10 49bd 1fa8 d7bc 5999 91bd dcd6 a33d
00000240: 6335 47bc 712a 0ebc b981 593d df20 643c
00000250: 8eaa 363d 28a6 cebc 8b31 9ebd 8d47 a0bd
00000260: 5f68 c23b 8a1e 203d ce82 7b3c fbdf 46bd
00000270: 4e23 85bc b429 093d a80e 723c 3699 8c3c
00000280: b0de a0bd e19b de3d 5066 63bd 8d6e 45bd
00000290: 4847 933d e651 ae3d e48a 683d df45 5f3d
000002a0: 55b5 613d acf1 32bd b90c d5bc 4faf da3c
000002b0: c7f4 91bd 7487 983c bcec 693d 1293 843d
000002c0: 37b8 bcbd ea0e d2bc d561 ca3d 8b2f fd3d
000002d0: 19e3 433d 63fd b33d ae12 c03d 3df6 863d
000002e0: 1b7c 83bc 25b5 a6bd c5dd b63d 51b4 00bb
000002f0: a023 9fbd 440d 9c3c 57f7 3f3d ee77 b03d
00000300: ea8e 3cbd d1f1 8c3d d712 f4bc f530 413b
00000310: 2afb 7e3b 363c ae3d 81b6 89bd 0458 89bd
00000320: 9847 d63b 0afe 2e3d bffc 9e3d 7128 d83d
00000330: b9b2 1bbd ea23 b3bd a7b9 99bd 68da e73c
00000340: b66b 833d 933e 373d 5c8d 03bd c024 a23c
00000350: e416 45bd 6ecf c03d ad8d 46bd 1457 34bd
00000360: 9eea a53c 9b07 4d3d 96cd 72bd bb33 a63c
00000370: fc88 a0bd 9bde ad3d 2457 f3bc 5331 c03d
00000380: 81e9 473d bcc3 b9bd 2a40 683c a0cd c13d
00000390: 7675 8cbd 47fc bf3d daac 60bc 4923 ed3c
000003a0: 2212 a03d 77c0 713b 9436 093d 1820 06bc
000003b0: 48c4 ed3c 41a9 1cbd be8b a8bc cf5e 05bd
000003c0: e04c ecbb 6b69 243c 3eba 923c c635 d9bb
000003d0: ddba 46bd 2e9d b3bc 88f7 d2bc 8fcc 69bd
000003e0: 7d03 293d 0a68 bcbd eed9 af3d c502 1bbd
000003f0: 63a7 9dbd 8afb 933b cc57 19bd 0902 873d

bias f4 [128]
-0.029793477 0.045001708 0.07118459 0.07211404 -0.047552656 -0.051799107 0.022967564 -0.07631009
-0.030252548 0.010065926 -0.076743156 0.024168955 -0.066440515 -0.03268261 -0.04559521 0.029611524
-0.02185906 -0.062018853 0.013471235 -0.019642744 0.0492597 -0.06245579 -0.043473627 -0.07906778
-0.027597602 -0.009743812 -0.0630039 -0.055408478 0.016344454 0.052014515 0.07241156 0.009934038
0.023244472 0.08710954 -0.028778393 -0.06446844 0.09101193 0.0634618 0.075241 -0.013656308
0.03687315 0.076133385 -0.07494224 0.036658183 0.029923217 0.024289213 -0.07360655 -0.036093906
0.08120389 0.08837873 -0.038590375 -0.02455604 -0.0055393022 -0.038818188 0.048548233 -0.028262325
0.042454533 -0.05765357 -0.078012064 0.056643397 0.06540967 0.077986926 -0.009929936 0.016008414
-0.013107201 0.0036920134 0.081133574 0.019617708 -0.08416183 -0.027071819 0.0074849366 0.04625896
0.0677638 0.01422858 0.030105999 0.038893033 0.042801637 0.014752077 0.014803745 -0.01700854
0.104707144 0.017750748 -0.0009272373 -0.017806219 -0.067398995 -0.051726583 0.056167964 -0.037768323
0.0059915767 0.066707924 0.032644484 -0.08368568 0.00067103194 0.05050881 -0.034421824 0.07601732
0.06414059 -0.010922433 0.072553016 0.01846935 0.06888258 0.05187625 -0.05520342 -0.053503748
-0.005016294 0.06968252 0.064685695 0.046530746 -0.045274317 0.02751618 0.09036644 0.019373342
-0.043640606 0.010479782 0.0014053782 0.063987575 -0.06763357 0.08323291 0.03080984 -0.00630389
-0.088086344 0.016949797 -0.05041371 0.0010474653 -0.07649838 0.071777806 0.03144744 0.04241385
00000000: 7311 f4bc b653 383d 3ac9 913d 87b0 933d
00000010: 93c6 42bd 4d2b 54bd 7926 bc3c 7748 9cbd
00000020: 31d4 f7bc 8eeb 243c 842b 9dbd f9fd c53c
00000030: f711 88bd 33de 05bd 0bc2 3abd de93 f23c
00000040: c511 b3bc 7b07 7ebd 74b6 5c3c d2e9 a0bc
00000050: 8ac4 493d a4d1 7fbd 6711 32bd 4aee a1bd
00000060: 5e14 e2bc 82a4 1fbc 3008 81bd 00f4 62bd
00000070: cee4 853c 2c0d 553d 834c 943d 60c2 223c
00000080: 316b be3c 7d66 b23d aac0 ebbc 0808 84bd
00000090: 7664 ba3d 43f8 813d f417 9a3d b5be 5fbc
000000a0: 4d08 173d d2eb 9b3d 517b 99bd e426 163d
000000b0: 8921 f53c 2cfa c63c 08bf 96bd 34d7 13bd
000000c0: 3a4e a63d e8ff b43d f110 1ebd c029 c9bc
000000d0: 0983 b5bb d2ff 1ebd 83da 463d 6486 e7bc
000000e0: cee4 2d3d 2626 6cbd cac4 9fbd e802 683d
000000f0: 81f5 853d 9cb7 9f3d 2cb1 22bc 1424 833c
00000100: 96bf 56bc b5f5 713b 5c29 a63d 51b5 a03c
00000110: 0a5d acbd b8c5 ddbc 3344 f53b 097a 3d3d
00000120: bfc7 8a3d fd1e 693c dba0 f63c 4d4e 1f3d
00000130: c550 2f3d b2b2 713c 688b 723c 7e55 8bbc
00000140: b370 d63d 046a 913c d811 73ba 59de 91bc
00000150: 7c08 8abd 41df 53bd 6110 663d f5b2 1abd
00000160: fd54 c43b 2a9e 883d 39b6 053d 6663 abbd
00000170: 31e8 2f3a 53e2 4e3d e6fd 0cbd f8ae 9b3d
00000180: 245c 833d 01f4 32bc ad96 943d 094d 973c
00000190: 4f12 8d3d 317c 543d fb1c 62bd bf26 5bbd
000001a0: b95f a4bb b6b5 8e3d ef79 843d 0697 3e3d
000001b0: 9071 39bd 9d69 e13c 0a12 b93d d8b4 9e3c
000001c0: 7ec0 32bd 64b3 2b3c ab34 b83a eb0b 833d
000001d0: 7883 8abd 0476 aa3d eb64 fc3c dd90 cebb
000001e0: 9d66 b4bd 4dda 8a3c 9b7e 4ebd 1a4b 893a
000001f0: 2fab 9cbd 3e00 933d 08cf 003d 25ba 2d3d

weight f4 [10, 128]
-0.05727109 -0.11170218 0.3032738 -0.2374896 0.04730373 -0.110857226 0.028834714 -0.024758667
0.15526615 -0.055216935 -0.06061421 0.0134957675 -0.036141697 0.059729926 -0.19278575 -0.0022663479
-0.04745305 0.016714709 0.052736647 -0.054044366 0.0481291 0.018234698 0.044501506 0.21395507
-0.070257716 -0.17288068 -0.052544374 0.045178853 0.060627982 -0.09666566 -0.12064395 -0.10790236
-0.086602524 0.0817105 -0.09750944 -0.089156374 -0.013774667 0.014669425 -0.05686543 -0.045484517
0.058513798 -0.022651918 -0.091106415 0.18813498 -0.05757459 0.071396485 -0.054795858 -0.14760654
0.2090157 0.009002281 0.000881954 -0.10934673 -0.019020237 -0.040606827 -0.15825327 0.13006324
-0.14583023 -0.09902317 -0.09512239 -0.09983313 -0.06310803 -0.10597865 -0.098231636 0.049465068
-0.03865601 0.078585304 -0.0026165512 -0.07382865 0.055610713 0.10753926 0.033320576 0.10971352
-0.10864987 -0.056785505 -0.15305762 -0.17406921 -0.05483017 0.059064798 -0.106915735 0.04808707
-0.18548949 -0.025999358 -0.08143007 -0.10430512 0.033983942 -0.22844958 -0.21194366 0.018882453
-0.1264586 -0.0854928 -0.11145004 -0.08753129 0.07500017 0.20143306 -0.07072147 0.07294056
0.009041634 0.14569998 0.31007338 0.005295955 0.14499068 -0.03291723 0.016253017 -0.05940544
0.07742224 0.1921469 -0.026407875 -0.037567805 0.085407004 0.20949787 0.22334021 -0.020928668
0.0008275517 -0.15534568 -0.09237813 -0.041776586 0.17557977 -0.06914246 0.0053433143 0.057251833
0.0830935 0.087844245 0.087171465 0.03696219 0.0072520413 -0.055621743 -0.060461123 0.07458015
-0.07170026 -0.059992306 0.054253425 0.036644105 0.022384115 0.17816554 0.07370387 -0.061301623
0.07946421 0.03951854 -0.08438189 -0.058729548 0.028198892 -0.039146967 -0.06707967 0.103238
-0.011493478 0.03609849 -0.22523375 0.16266043 0.21295579 -0.0720641 -0.11541476 -0.06105451
-0.019374251 0.12323022 0.101542175 -0.08911188 -0.11880355 -0.13710175 0.13625789 -0.10898733
-0.086315915 -0.06278432 -0.14678928 -0.012673805 0.07480596 -0.16389556 0.042968888 -0.22758907
0.06855086 -0.029078104 -0.06349475 -0.16567361 -0.05659688 -0.10285163 -0.057482477 -0.0003824411
-0.14737028 0.11840803 0.1848086 0.05471803 -0.076113045 0.11751428 0.04916324 -0.026106244
0.23707804 0.09181116 0.09232747 0.26933777 0.003721038 -0.018563496 -0.24287707 -0.077960625
0.05494012 -0.022349626 0.020749578 0.04466009 -0.1274139 -0.17586501 0.084394395 -0.14296079
0.15017058 -0.12000298 0.054144718 0.07495227 0.051557057 -0.036089025 -0.059210848 0.018948928
-0.0158908 0.046866503 -0.057697423 0.29737106 -0.1606373 -0.0153982295 0.096639454 -0.021877117
-0.089458585 0.0287741 0.3043993 -0.053068638 -0.01820709 -0.006022281 0.07891625 0.09722042
0.0110593885 -0.075874895 -0.047076404 -0.14953753 -0.21411791 0.030334817 -0.07667476 -0.025732413
-0.083527066 0.008094593 0.0143472 0.009165937 -0.09519296 -0.06719003 0.08357932 0.034586195
-0.11511815 0.24584183 0.10531302 0.046935365 -0.058016527 0.00045479182 -0.237595 0.12736292
0.032876708 0.16183485 -0.01460218 -0.07244849 -0.066925466 -0.103092246 0.011587899 -0.2895319
00000000: 1795 6abd 1dc4 e4bd b446 9b3e 7930 73be
00000010: 8ec1 413d 1d09 e3bd c736 ec3c b0d2 cabc
00000020: 17fe 1e3e 272b 62bd 9b46 78bd 5a1d 5d3c
00000030: 5109 14bd 5ea7 743d a169 45be 0287 14bb
00000040: 215e 42bd 49ed 883c 6202 583d a05d 5dbd
00000050: 0523 453d ef60 953c 3647 363d 0a17 5b3e
00000060: 47e3 8fbd a207 31be c538 57bd 760d 393d
00000070: 0c55 783d a5f8 c5bd 2d14 f7bd eafb dcbd
00000080: aa5c b1bd d657 a73d 07b3 c7bd 9e97 b6bd
00000090: 24af 61bc 0758 703c baeb 68bd f94d 3abd
000000a0: 2aac 6f3d 8490 b9bc 0096 babd 75a6 403e
000000b0: 55d3 6bbd 5238 923d 9f71 60bd 2b26 17be
000000c0: 3608 563e 4e7e 133c ee32 673a 2ef1 dfbd
000000d0: 54d0 9bbc 5853 26bd 250d 22be 4c2f 053e
000000e0: 8554 15be a9cc cabd 87cf c2bd 5075 ccbd
000000f0: c83e 81bd 560b d9bd ab2d c9bd e29b 4a3d
00000100: c455 1ebd 55f1 a03d 727a 2bbb 7a33 97bd
00000110: 0fc8 633d 8b3d dc3d 287b 083d 7bb1 e03d
00000120: d383 debd eb97 68bd 23bb 1cbe 333f 32be
00000130: 9a95 60bd eeed 713d a3f6 dabd f3f6 443d
00000140: f5f0 3dbe 9bfc d4bc cfc4 a6bd ec9d d5bd
00000150: bf32 0b3d b0ee 69be c207 59be 60af 9a3c
00000160: 5d7e 01be d916 afbd eb3f e4bd 9b43 b3bd
00000170: b099 993d 7844 4e3e 6bd6 90bd dc61 953d
00000180: 5d23 143c 6032 153e f0c1 9e3e b189 ad3b
00000190: 7078 143e 38d4 06bd 0c25 853c 1e53 73bd
000001a0: 8d8f 9e3d 28c2 443e 5455 d8bc b3e0 19bd
000001b0: dee9 ae3d 9c86 563e 4cb3 643e 9972 abbc
000001c0: 0ef0 583a f012 1fbe bf30 bdbd ed1d 2bbd
000001d0: 2fcb 333e 909a 8dbd f816 af3b e680 6a3d
000001e0: ed2c aa3d afe7 b33d f486 b23d aa65 173d
000001f0: 88a2 ed3b a0d3 63bd 15a6 77bd 7abd 983d
00000200: 96d7 92bd 7eba 75bd d738 5e3d 2118 163d
00000210: e45e b73c 0771 363e 0ef2 963d 6917 7bbd
00000220: 22be a23d 31de 213d 6ad0 acbd 658e 70bd
00000230: 5d01 e73c 9258 20bd 1161 89bd 726e d33d
00000240: 244f 3cbc 03dc 133d ada3 66be 7590 263e
00000250: 1511 5a3e 5896 93bd 935e ecbd 4b14 7abd
00000260: c0b6 9ebc 2060 fc3d 58f5 cf3d 4a80 b6bd
00000270: 474f f3bd 6764 0cbe 3087 0b3e c034 dfbd
00000280: 66c6 b0bd 1195 80bd ee4f 16be caa5 4fbc
00000290: de33 993d 3dd4 27be 2500 303d 1c0d 69be
000002a0: 6564 8c3d 3435 eebc 8909 82bd 58a6 29be
000002b0: 21d2 67bd e0a3 d2bd bf72 6bbd 6082 c8b9
000002c0: 3ce8 16be e97f f23d 773e 3d3e 0320 603d
000002d0: 28e1 9bbd 54ab f03d 655f 493d c3dc d5bc
000002e0: 96c4 723e 7d07 bc3d 2f16 bd3d a4e6 893e
000002f0: a9dc 733b 7912 98bc c4b4 78be d2a9 9fbd
00000300: e408 613d 9016 b7bc 05fb a93c 80ed 363d
00000310: ca78 02be f515 34be f8d6 ac3d 5064 12be
00000320: 51c6 193e 1fc4 f5bd dac6 5d3d 9380 993d
00000330: 7e2d 533d 16d2 13bd 1387 72bd c83a 9b3c
00000340: 6c2d 82bc 17f7 3f3d 2254 6cbd 0541 983e
00000350: 1b7e 24be db48 7cbc e8ea c53d a437 b3bc
00000360: 1036 b7bd a9b7 eb3c 3ada 9b3e 805e 59bd
00000370: 0927 95bc 8e56 c5bb d89e a13d 801b c73d
00000380: 7032 353c 4c64 9bbd 30d3 40bd 5e20 19be
00000390: ba41 5bbe b980 f83c a807 9dbd c8cc d2bc
000003a0: 3d10 abbd 2f9f 043c 8510 6b3c ba2c 163c
000003b0: 87f4 c2bd ed9a 89bd a22b ab3d 41aa 0d3d
000003c0: 11c3 ebbd f6bd 7b3e 5aae d73d 4c3f 403d
000003d0: bda2 6dbd 2071 ee39 1b4c 73be 6d6b 023e
000003e0: baa9 063d 09b8 253e fb3d 6fbc e05f 94bd
000003f0: 3810 89bd 0722 d3bd 2cdb 3d3c 863d 94be

bias f4 [10]
-0.067713834 -0.02023059 0.031150835 0.043705914 -0.029853433 0.13013953 -0.08308536 -0.04273734
-0.06642544 -0.099586055
00000000: 8dad 8abd 9fba a5bc 0930 ff3c f904 333d
00000010: 308f f4bc 4c43 053e a828 aabd 590d 2fbd
00000020: 100a 88bd c6f3 cbbd
